sample data/models/model_basic/modelWith2EpochOperaAppliedOnEachDigitBatchSize320.pth (torch, 669711 bytes, 8 tensors)

weight f4 [64, 1, 3, 3]
000000 80 70 04 3d e9 43 38 be b5 9e 84 be 65 0b 9c be
       0.03233385 -0.17994656 -0.25902334 -0.30477443
000010 38 1d 18 3e ee b9 82 3c e2 af aa be bb e5 10 3e
       0.14854896 0.015957799 -0.33337313 0.14150135
000020 58 3e 91 3e 56 b7 a1 3e 94 b9 18 be 7f 90 11 be
       0.28367877 0.31585187 -0.14914542 -0.14215277
000030 be b2 4b 3e ca c4 16 ba 70 b2 9c be fa 74 09 be
       0.19892403 -0.000575137 -0.30604887 -0.1342353
000040 8d ce 93 bd bb 27 00 3d 32 2d 6f be c7 d8 60 3a
       -0.07217131 0.03128789 -0.23357084 0.0008577224
000050 87 08 c7 3d 16 13 51 bd cf 30 9b be d6 a5 26 3e
       0.09718423 -0.051043592 -0.30310676 0.16274199
000060 0f 05 41 3d 38 fd 08 3e 8d a8 c1 3d 40 a7 3f bc
       0.047123965 0.13377845 0.09455977 -0.01169759
000070 af d5 5d bc ad bf 56 3d c8 17 b5 3d 10 8d 15 3e
       -0.013539716 0.05242889 0.088424265 0.14604592
000080 6b b5 89 3d 76 24 47 be 80 c2 2f 3e 63 69 b4 3d
       0.06724056 -0.19447502 0.1716404 0.088091634
000090 79 ce 68 3e 8e 44 5f bd 4c 89 2e 3e f2 7f 03 3e
       0.22735013 -0.05450874 0.17044562 0.12841776
0000a0 1b 90 a6 3d dc b2 ae 3d 0a 55 3f be 11 29 b5 3d
       0.08132955 0.085302085 -0.18684784 0.088457234
0000b0 02 eb 0c bc 65 c3 71 3e 06 a5 95 3d b5 d2 9d 3d
       -0.008600952 0.23609693 0.07306866 0.07706205
0000c0 1b 28 b6 bd e8 e0 e9 bd f9 9c 59 3c 7b 40 74 bc
       -0.08894368 -0.114198506 0.013282054 -0.0149079515
0000d0 ff f4 ea bd 68 0c 0a be 5d b5 91 be 66 d0 37 3e
       -0.114725105 -0.13481295 -0.28458682 0.17950591
0000e0 13 5c 7f be bf cc af 3b 63 d8 51 be b0 f3 a3 3d
       -0.24937467 0.005364984 -0.20492701 0.08005464
0000f0 5a a0 b5 bd 42 34 9f 3e d9 91 3c 3d 53 82 18 bd
       -0.08868475 0.31094557 0.04603753 -0.03723366
000100 bf f7 87 be 46 b9 24 3e 78 00 b2 bd ac b6 25 bb
       -0.26556203 0.16086301 -0.08691496 -0.0025285883
000110 0b 38 a8 be 78 5a 86 bd 02 70 ad 3e 83 2a 27 bd
       -0.32855257 -0.06560224 0.33874518 -0.040812027
000120 79 c4 fb bd 33 07 66 3e f1 fa cd 3d 70 16 a5 be
       -0.122933336 0.22463684 0.10057629 -0.3224368
000130 00 39 ee 3d 8c 00 2e 3e 03 79 bd be 78 c9 5d be
       0.11631966 0.16992396 -0.37006387 -0.21658885
000140 8c 7f f9 3d 57 fd 1c be 1e 44 3c be 21 1f 88 be
       0.12182531 -0.15331016 -0.1838536 -0.2658625
000150 a9 b9 0c be f1 fd 95 3d 54 b0 86 3e 1d ef 22 3e
       -0.13742699 0.07323826 0.26306403 0.15911527
000160 82 6b 12 3e 27 7c 04 3e 63 63 24 bd f0 d4 a4 3e
       0.14298823 0.12937985 -0.040133845 0.32193708
000170 60 98 24 3e 00 46 84 be f4 ae f9 bd c0 8e 91 bc
       0.16073751 -0.25834656 -0.12191573 -0.017768264
000180 40 0d 8c be f6 9a b6 bd 62 19 91 3c 8a 50 b3 3e
       -0.2735386 -0.08916275 0.017712299 0.35022384
000190 7e 49 40 3d 3d 00 87 3d a0 c6 32 be 03 0c f7 3d
       0.046945088 0.06591842 -0.17458582 0.12062838
0001a0 1b 89 d8 bd a2 5c a3 3e 06 ab 99 be 9b a2 a4 be
       -0.10573026 0.3190661 -0.30013293 -0.32155308
0001b0 1e 1f 13 be 9b 8b 32 bc c3 7d 4c be 6e 00 0a 3e
       -0.14367339 -0.010897542 -0.1996985 0.13476726
0001c0 e4 48 19 3c 84 da 63 be c8 37 66 3e 68 d4 96 bd
       0.009355757 -0.22251326 0.22482216 -0.07364732
0001d0 c0 6c 16 3e 0f 64 c5 be 24 90 2c 3e ba 22 7d 3e
       0.14689922 -0.385529 0.1685186 0.24720278
0001e0 7c 82 58 ba e8 f2 7d bd 5c 34 04 3d 09 4f da 3d
       -0.000825919 -0.06199923 0.032276496 0.10659606
0001f0 bb 05 74 3e 86 ef 65 3d c4 08 55 be 42 60 88 be
       0.23830311 0.05613663 -0.20804125 -0.2663594
000200 80 c8 af be 29 dd 21 be 02 ae 5c 3e f1 89 8a be
       -0.34332657 -0.15807022 0.21550754 -0.27058366
000210 f3 ff 44 be c8 6d 84 3e 55 17 a7 3e 40 c0 0b 3e
       -0.19238262 0.25865006 0.32634988 0.13647556
000220 79 ce 7b 3e c7 0c 6e 3c 45 1f f9 bd b4 ec 52 3e
       0.24590482 0.014529414 -0.12164167 0.20598108
000230 11 40 e8 bc 53 6e 7e 3e 7d d4 d8 bd 87 16 0b be
       -0.028350862 0.24846773 -0.10587404 -0.13582812
000240 7d d0 2c 3e fe 49 7f 3e 86 5c 27 3c 1c 49 88 be
       0.16876407 0.2493057 0.01021493 -0.26618278
000250 43 75 65 be 18 f3 0f be cf 55 86 be 00 3c f9 3d
       -0.22408013 -0.14057577 -0.26237342 0.12169647
000260 17 bf 00 3e 5a 09 62 bc dd 36 0a 3d fb d4 db bd
       0.12572895 -0.013796175 0.033743728 -0.10733982
000270 62 e2 c6 3d 8e 8a 5f 3e 12 c5 b2 be 36 c7 3a be
       0.09711148 0.21830198 -0.34915978 -0.18240055
000280 e6 86 a4 3e 6c 6f af bd 0a 73 f5 bd 33 01 4d be
       0.3213417 -0.08566174 -0.119848326 -0.20019989
000290 5a cd b2 be c1 11 08 bc 17 80 1f 3e 1e 6e 6b 3e
       -0.34922296 -0.008305014 0.15576206 0.22991225
0002a0 63 94 04 3d cf 31 67 3e 49 a0 df bd 7a 0d a5 3e
       0.032368075 0.22577594 -0.10919244 0.32236844
0002b0 2f f5 52 bd 72 d6 7b bd 1d 17 b2 3e 10 b9 3a 3e
       -0.051503357 -0.061483808 0.3478326 0.18234658
0002c0 97 bb 52 bd 6f c5 73 be 13 70 62 be 43 7e ce be
       -0.05144843 -0.23805784 -0.22113065 -0.40330705
0002d0 63 7a 93 be ea 1f e8 3c d8 dd 1e be aa 53 90 3e
       -0.2880431 0.02833553 -0.15514314 0.2818883
0002e0 47 31 fd bd f7 47 23 be b0 50 33 be b3 cf 90 3e
       -0.123629145 -0.15945421 -0.17511249 0.28283462
0002f0 93 83 af 3d e6 30 78 3c 27 1c a6 3e a0 73 93 3d
       0.08570018 0.015148377 0.32443354 0.07199788
000300 2d f5 59 be 5c d3 2d bd 89 05 ac be b8 1c 64 3d
       -0.21284933 -0.042437896 -0.33597973 0.05569145
000310 b4 74 5a be aa 9c 64 3e 50 76 3c 3e b1 85 93 be
       -0.21333581 0.22325388 0.18404508 -0.28812936
000320 f4 f3 6e 3d de 5e 17 be 7b 13 58 be 41 d9 0b 3e
       0.05833812 -0.14782283 -0.21101181 0.13657095
000330 36 66 5e 3e 39 6f 8a be 0b 40 fc 3d 80 58 b2 be
       0.21718678 -0.2703798 0.12316903 -0.34833145
000340 12 c5 14 bc 1c 93 be bd eb 1b c2 be 9d 46 7d 3e
       -0.009080188 -0.09305403 -0.37911925 0.24733968
000350 b0 26 94 3e 56 00 ae be 84 73 86 3e 49 ec 97 bd
       0.28935766 -0.3398463 0.26260006 -0.07418115
000360 36 1b 43 3d 1d f6 4b bd 45 bc 9b 3e 55 aa a4 3d
       0.047633372 -0.04979526 0.30417076 0.08040301
000370 f5 dd fc 3d be 1b 52 be 68 06 95 3e 01 c5 5a be
       0.123470224 -0.20518395 0.2910645 -0.21364214
000380 aa 6a b9 be 8d cf 4d 3e 99 b7 1c 3d 0a 68 7d 3d
       -0.3621419 0.20098706 0.03826103 0.061866798
000390 f7 a5 1a be f8 56 53 be cb af 03 3e a6 10 54 3d
       -0.15102373 -0.20638645 0.12860028 0.05177369
0003a0 a8 63 de 3d dc cc 7f be 7c 85 a0 be 74 8d 12 3e
       0.10858852 -0.24980491 -0.3135184 0.14311773
0003b0 c0 22 d3 3d 63 5e 67 3e 8d 42 47 3e 1f 40 9e be
       0.103093624 0.225946 0.19458981 -0.30908296
0003c0 f7 e5 4d 3e a2 8e 97 be 8a aa bf 3c 70 a7 b2 3c
       0.20107256 -0.29601008 0.023396749 0.021808356
0003d0 2d 3c 97 be 55 b7 bd 3e 12 98 4c be cf a2 8b bd
       -0.29538098 0.37053934 -0.19979885 -0.06818163
0003e0 9d 32 a2 3e 8a 69 b7 be 75 da 6e bd d9 3a 81 be
       0.3167924 -0.35822707 -0.058313806 -0.2524021
0003f0 1a ec 33 be 1d df 97 3e 3d c3 77 be 6f 4c 79 3e
       -0.17570534 0.2966241 -0.24195571 0.24345563

bias f4 [64]
000000 ed 75 73 3b 66 f4 9c be 9b 16 68 be 60 4d ca bc
       0.0037149147 -0.3065521 -0.22664873 -0.024695098
000010 26 33 29 be a0 b1 58 be 95 de 9c bc 6c 9d c7 bc
       -0.16523418 -0.21161509 -0.019149104 -0.024367057
000020 b2 09 ca bd 53 7b 94 bd 70 2d e2 3d fc 9b b2 3d
       -0.098651305 -0.07250085 0.11043823 0.08721158
000030 21 56 6f bc 6b 35 d2 3c f1 4a 71 bd 6b 8e 81 be
       -0.014607937 0.025660237 -0.05890936 -0.2530397
000040 d0 e2 c7 3c 38 b7 72 3d 65 02 a6 be 70 e6 22 3e
       0.024400145 0.059256762 -0.32423702 0.15908217
000050 ff a8 b2 be 5e 19 d6 3c c1 3d 60 bc 6c 9b 8d be
       -0.3489456 0.026135143 -0.013686598 -0.2765764
000060 36 c4 85 bd 03 b0 db be 38 b1 b7 be 7e ad 87 be
       -0.06531565 -0.42907724 -0.35877395 -0.26499552
000070 6a 06 35 be 1c ae 7b be 23 e0 6d 3e d7 59 f9 bc
       -0.17678228 -0.24578136 0.23230033 -0.030438347
000080 20 db 05 bc 5b ab 0a 3e 25 90 11 be 4f 8f 65 be
       -0.008169919 0.1354193 -0.14215143 -0.22417949
000090 17 57 32 be a3 d1 bc bc 2a a4 7a be 16 d7 2b 3d
       -0.17416035 -0.023049181 -0.24476686 0.04195317
0000a0 18 22 29 bc 75 90 aa bd df 3d e9 bb b9 5b da 3d
       -0.01032307 -0.08328334 -0.0071179713 0.10662026
0000b0 66 f7 c1 3c 64 73 d5 bb 24 80 4b bb c2 eb 17 3d
       0.02367754 -0.006514 -0.003105172 0.03709007
0000c0 0a 01 89 3e f7 6a c8 bc 76 62 5f bc 42 6d a4 3e
       0.26758605 -0.024465067 -0.013634315 0.32114607
0000d0 bd df de bd a2 fe 0c be a4 69 45 3d 4e 13 87 3e
       -0.108825184 -0.1376901 0.04819645 0.26381916
0000e0 c7 87 2c 3d f9 ab 54 be 10 e6 4c be 42 41 be be
       0.042121675 -0.20768727 -0.20009637 -0.37159163
0000f0 1a 40 cc bc 11 ef 3a 3e e9 98 18 bc 22 16 e5 bd
       -0.02493291 0.18255259 -0.0093138 -0.11185862

weight f4 [64, 64, 3, 3]
000000 91 c0 79 3d c3 bb 44 bb 41 89 94 3c 2a d6 11 be
       0.06097466 -0.0030019141 0.018131854 -0.14241853
000010 17 67 2d be c8 92 5a bb c2 35 0f be 04 4e 23 be
       -0.16933857 -0.0033351649 -0.1398535 -0.1594773
000020 47 19 19 be 5c 11 c9 3b 14 9a be 3c 7e 0e df 3c
       -0.14951049 0.0061361026 0.02326683 0.02722859
000030 5b 67 21 3a dd 04 95 3c b1 c6 58 3d c2 c1 44 bd
       0.0006157064 0.018190796 0.052923862 -0.048036344
000040 ae ad 86 bd 92 01 60 bd 72 7e ec 3c 90 bf 17 3c
       -0.065760955 -0.054688998 0.028868888 0.009261981
000050 3f c6 d5 bd f3 b8 1c bd 0a cc 2f bd e8 6c 02 3d
       -0.10438203 -0.03826232 -0.042919196 0.031842142
000060 93 66 49 bd 5c 8d 25 bd a6 c7 4c 3d 44 b1 12 3b
       -0.049170088 -0.040418014 0.049995087 0.002238349
000070 fe 0b fa 3b b2 bf 45 bd e8 16 65 3c 93 4a a4 bc
       0.007630824 -0.048278518 0.013982512 -0.020055091
000080 60 c1 d8 3b 5e 80 2c 3d e9 ae 5e bc 77 9c a1 3c
       0.006614849 0.042114608 -0.0135915065 0.019727929
000090 dc 2b 23 3d 88 a0 86 bc 49 13 52 3c e3 d2 01 3d
       0.03983675 -0.01643397 0.012821981 0.031695258
0000a0 43 be d8 3b 53 4b 59 bd 6c 20 2c bc 5c 93 00 3d
       0.006614478 -0.05305035 -0.010505777 0.031390533
0000b0 0b a8 17 bb e8 2a 08 bd c4 69 42 3d 28 4e 0f 3d
       -0.0023140933 -0.033244044 0.047464147 0.034986645
0000c0 45 a2 43 3d 81 fa 9c bc fe d6 1c bd 1d ae 12 3d
       0.047762174 -0.019162418 -0.03829097 0.03581058
0000d0 b4 3c 0f 3c df 24 0f bd 2a 6f c8 ba 9a d2 a6 bd
       0.0087425 -0.034947272 -0.0015291919 -0.08145638
0000e0 2e a4 07 bd e0 3c 15 be ce 4f f6 bd 25 78 43 bc
       -0.03311556 -0.14574003 -0.1202694 -0.0119305
0000f0 88 4c 44 be 51 9f f2 bd 04 10 27 bb 4e d7 d0 bd
       -0.1916982 -0.118467934 -0.0025491724 -0.10197316
000100 ad 77 60 bd 40 9c cd 3c 0f 28 6a bd 02 a7 3d bd
       -0.05480163 0.02509892 -0.05716711 -0.04630185
000110 ab 46 0a bd 61 b1 18 bd b7 c5 5c 3c f4 6c cb 3d
       -0.0337588 -0.037278537 0.013474873 0.099328905
000120 e3 cb 45 bd a1 f7 b8 bd 31 08 32 bc bb 62 85 3d
       -0.048290145 -0.090316065 -0.010866211 0.06512972
000130 9c de 7e bd 0e 3a fc bd 23 20 eb 3d f3 0b d2 3d
       -0.062224016 -0.123157606 0.11480739 0.102561854
000140 28 67 93 3b 39 9f 4c bc cc 9a e5 bb 22 67 d0 bd
       0.004498381 -0.0124891335 -0.0070069786 -0.10175921
000150 19 08 62 bd bc a7 3b bd 7f 5a 69 3d 98 68 80 bd
       -0.055183504 -0.04581426 0.05697107 -0.0626995
000160 27 cd 8a 3d 53 36 eb 3d 71 b5 18 be 62 4b f8 bc
       0.06777411 0.11484971 -0.14912964 -0.030309383
000170 f1 33 2d 3d 8e 55 38 3d d5 39 f5 bd ed a7 77 bd
       0.042285863 0.045003466 -0.11973921 -0.06046288
000180 44 e8 32 3e 83 7f f4 3d 81 08 a9 3c ce a2 91 3d
       0.17471415 0.119383834 0.020633938 0.07111131
000190 ae 44 98 3d 47 9b c5 3d 5a 98 ca bd 17 e9 23 bd
       0.074349746 0.096487574 -0.0989234 -0.040017214
0001a0 6e 8a 23 3d 5b aa a6 bd 40 76 1d be 95 3b 4e be
       0.03992694 -0.081379615 -0.1537714 -0.20139916
0001b0 46 8a f2 3c 03 fc b7 3b 10 41 18 3c 9d 6e eb 3c
       0.02960695 0.005614759 0.009292856 0.028739268
0001c0 ff 01 82 3d f9 0f 14 3e 72 d1 1d 3d cd 71 98 3d
       0.06348037 0.14459218 0.03852982 0.07443581
0001d0 83 32 c0 3d 68 20 28 3d db 2e 0c 3c 6e 47 94 bd
       0.09384634 0.04104653 0.008556093 -0.07240187
0001e0 5d b0 06 3d 18 9a 2a bd fc ea 82 bc c8 ea 05 bd
       0.032883037 -0.04165086 -0.01598119 -0.032694608
0001f0 07 89 f7 3c 46 18 48 3d 5b 12 cb bd ff 69 a3 bd
       0.030216707 0.048851274 -0.099156104 -0.079792015
000200 de ea 01 bc 0b 7a 32 be 61 b1 3c be 24 86 63 bd
       -0.007929532 -0.17429368 -0.1842704 -0.05554785
000210 fc 1d 32 be ea 43 f6 bd 99 ae bd bc f3 b6 51 3a
       -0.1739425 -0.12024672 -0.023154544 0.0007999979
000220 0f 0b e5 bc a4 ab 99 bc c4 dc fb bb 94 3a 9d 3c
       -0.027959375 -0.018758602 -0.0076862294 0.019192971
000230 17 6a f7 bc cc 15 d4 bb 0e 61 06 3d 40 c2 c4 3c
       -0.030201955 -0.006472325 0.032807402 0.024018407
000240 72 a0 27 bd ae 69 0d bd 87 ca ec 3c 37 c1 d1 3c
       -0.040924497 -0.034524612 0.028905166 0.025604827
000250 b7 36 80 bd 5e 9f 92 bd 3b 1e 05 3d 56 fd 7d 3d
       -0.06260436 -0.07159303 0.032499533 0.062009178
000260 9b 28 52 3c 64 47 28 3d 7e f2 7b 3c 0c 46 2f bc
       0.012827064 0.04108371 0.015377639 -0.010697853
000270 22 9b 2d 3d cf 95 d3 3d 20 ed d0 3d d3 b8 ee ba
       0.042384274 0.10331308 0.10201478 -0.0018213041
000280 a0 fc 31 3d 43 e6 fb 3c 80 7e 96 bc 6b 86 dc bc
       0.043453813 0.030749446 -0.018370867 -0.026919564
000290 4e b1 88 bd 57 38 9d bc 76 ff 25 3b 70 bf c9 3d
       -0.06674443 -0.019191904 0.0025329269 0.09850967
0002a0 43 e7 83 bd 23 fa 6e 3d b7 cf 03 3e d5 c8 08 bd
       -0.06440594 0.058344018 0.12872206 -0.033394653
0002b0 0d 1b d4 3c 6b 94 8d 3d c0 74 09 be d7 52 e3 bd
       0.025891805 0.06913074 -0.13423443 -0.11099785
0002c0 0f ed 27 bd cf 1f b8 bd 0d 97 01 be be 67 31 be
       -0.04099756 -0.08990442 -0.12655278 -0.17324731
0002d0 33 61 c7 bc 55 0e fa bc 84 70 fc bc b9 f1 43 bd
       -0.02433834 -0.030524412 -0.03081537 -0.047837947
0002e0 e9 76 0e 3d 93 6b bd 3c 4b ad 0e bd d6 c8 6d 3d
       0.03478137 0.023122584 -0.034833234 0.05805286
0002f0 21 e6 9d 3d fa c4 ea bd e8 f9 50 bc ed 41 e3 3d
       0.07709909 -0.114633515 -0.012754895 0.11096559
000300 b5 b2 b9 bd 33 2d ce bd 25 cd e2 3b 31 52 59 3d
       -0.09067289 -0.10067215 0.006921428 0.0530569
000310 a9 93 62 3d 11 2f 7f bd 3a 82 9c 3d 2d 2a 44 3c
       0.0553166 -0.062300745 0.07642026 0.011972946
000320 d3 30 ab 3c 60 38 32 bd f5 88 b9 ba de e4 6e 3d
       0.020897305 -0.043510795 -0.0014155196 0.058323734
000330 cb 5a 82 bc 28 65 41 bd 83 7d 2d 3d 02 d2 60 3d
       -0.015912434 -0.04721561 0.042356025 0.05488778
000340 03 46 81 3d 06 3e c6 bd 4d 96 22 3d ad 00 a2 3c
       0.06312182 -0.09679799 0.03969412 0.019775713
000350 93 62 c8 ba 46 9b 26 bb 49 8a db bd 6b c7 c9 bd
       -0.0015288166 -0.002542214 -0.10719735 -0.09852489
000360 eb d0 77 3c af e9 90 3d 23 22 27 3e 1e 83 8f bd
       0.0151254935 0.070758216 0.16321616 -0.070074305
000370 4e fe a0 bb a2 8b bc 3c df 08 a1 bd 37 f2 c4 bd
       -0.004913128 0.0230158 -0.0786302 -0.09616511
000380 77 fb 28 be 48 5d 6c bc 10 ce 13 3d ca d2 7c 3d
       -0.16502176 -0.014426537 0.03608519 0.06172446
000390 b8 bc 16 3d f1 b9 25 bc 94 79 db bb 32 61 82 3a
       0.03680107 -0.010115133 -0.006697843 0.0009947179
0003a0 8e e5 1f 3b 18 6b a6 3c fe e9 21 3d 9c c0 61 3d
       0.00243983 0.020314738 0.039529793 0.055115327
0003b0 3e ae 2a 3d ad e6 40 3c 94 9d 08 3d 7a cc 41 ba
       0.041670077 0.011773747 0.033353403 -0.0007392835
0003c0 28 1e 2e bd d1 2e 46 bd e3 e2 0f bd 55 02 36 bd
       -0.042509228 -0.04838449 -0.035128485 -0.044435818
0003d0 e8 5f 53 bd 26 17 83 bd 48 78 0a 3c 92 df 66 3c
       -0.051605135 -0.064008996 0.008451529 0.014091389
0003e0 00 df 54 3d a3 a1 0a 3e d5 5c 37 3e 1a db 6f bc
       0.051970482 0.13538222 0.17906506 -0.01463964
0003f0 58 51 00 be ff b3 c0 bd 62 31 31 3d e9 e1 8a 3d
       -0.1253103 -0.094093315 0.043259986 0.0678137

bias f4 [64]
000000 f9 b2 9c bd 2a aa cf bd 9e de 23 3d 48 bd d2 3c
       -0.07651324 -0.10139878 0.040007226 0.025725022
000010 36 4a 6b 3d 7c 33 e3 bc ed 55 09 bd ec 5f 6f bd
       0.05744382 -0.02773451 -0.03352921 -0.058441088
000020 89 9b 2a 3d 8d 9a e6 3c fd 45 1f 3c 36 38 ce bd
       0.041652236 0.028149867 0.009721276 -0.10069315
000030 88 dc be 3d 0c 32 a7 bb d3 7b e5 3b e0 d0 5d bc
       0.09319407 -0.0051024016 0.0070032864 -0.013538569
000040 dd ee 30 3c f5 48 5d bd 2f bb 79 3d e9 33 dd 3b
       0.010799137 -0.054024655 0.060969528 0.006750573
000050 cb a8 15 3d 10 34 4e bd 44 10 5d 3c 41 a1 c0 bc
       0.036537927 -0.05034262 0.013492648 -0.023514392
000060 17 98 11 bd 4c 88 95 bc 98 f8 7a bc 21 4c 4e bd
       -0.035545435 -0.018253468 -0.015318058 -0.05036557
000070 1c 60 be bd b3 29 28 bd aa 43 9d bd 90 14 28 bd
       -0.09295675 -0.041055392 -0.076789215 -0.041035235
000080 24 41 19 bb a6 76 f4 bc 5f 45 67 bd 61 82 04 bd
       -0.0023384774 -0.029841732 -0.05646264 -0.0323509
000090 35 4f 7b 3c 49 58 ef 3c ea 5f 4c 3c 40 b3 6f ba
       0.015338709 0.029216902 0.01247404 -0.0009143837
0000a0 08 55 a2 bc 05 ea 85 bd a9 13 0c bd bc 42 e9 3c
       -0.019815937 -0.06538776 -0.034198437 0.028474204
0000b0 89 42 4b bb 32 ea ea 3c 8a 61 61 3d 75 18 f1 3b
       -0.0031015 0.028676126 0.05502466 0.007357652
0000c0 18 ec da 3c 7e f0 8b bd 9f e2 62 bd 6a 14 a4 bc
       0.026723906 -0.068329796 -0.055391904 -0.020029265
0000d0 a2 4f e4 3c e9 b0 a2 3d de bf 2e bd d1 cd ca bc
       0.027870003 0.07943899 -0.042663448 -0.024756344
0000e0 3d f2 35 3d 0c c7 b1 bc 4b 92 35 bd 69 13 6f bd
       0.04442047 -0.021701358 -0.04432897 -0.05836812
0000f0 2f a8 44 bd b0 94 ea bd 2c 37 e5 bc 17 5f 01 bc
       -0.048011955 -0.11454141 -0.02798041 -0.007896206

weight f4 [80, 1600]
000000 38 2e 51 3d 79 9c b7 bc f3 6b b9 bd d3 2c 1f bd
       0.05106947 -0.02241348 -0.09053793 -0.038861107
000010 ee 86 bd bb 78 4d 0f 3e 96 31 34 3e ad 55 b9 3d
       -0.005783907 0.13994396 0.1759704 0.090495445
000020 82 d3 f6 3d 01 db 85 3b 9a 19 12 3e 47 e9 00 3e
       0.12052061 0.004084945 0.14267579 0.12588988
000030 4f d4 94 3d 15 e4 3c 3d 08 ef 20 3d 91 81 a2 bc
       0.07267057 0.046115953 0.039290458 -0.019837173
000040 23 f0 ed bc 62 08 dc bc 76 84 bc 3c d3 5a b9 3b
       -0.02904517 -0.026859466 0.023012381 0.005656579
000050 41 71 20 bc 29 d5 ab 3b b5 10 76 bd a4 fc d3 bb
       -0.009792627 0.0052439165 -0.060074527 -0.006469326
000060 8f 58 d9 bc 84 2d ff bc 47 09 6a bd c8 ee d7 bc
       -0.026531486 -0.031149633 -0.057137754 -0.026358977
000070 45 19 1e bb 0c 35 16 3c 3c 2b 95 bb 08 6f 59 3d
       -0.0024123949 0.009167921 -0.004552273 0.053084403
000080 da 74 a2 3c 94 79 b2 3d f6 f2 73 3d 24 5d 54 3d
       0.01983111 0.087145954 0.059557877 0.05184664
000090 c8 d0 82 3d 19 d3 6e 3c d3 9f f9 bc c9 f3 4d 3c
       0.06387478 0.014576697 -0.030471718 0.01257033
0000a0 69 5c f0 ba ff bf 91 39 e3 85 50 3b 4e 22 fa 3c
       -0.0018338087 0.00027799603 0.0031818084 0.030533936
0000b0 9e 82 8c 3b 51 68 13 3d dc 85 24 3d 7e 48 0d bb
       0.0042880317 0.035988156 0.04016672 -0.0021558101
0000c0 77 37 2c bc ca 9d 45 bc 92 7c 50 ba eb 09 9a 3d
       -0.010511271 -0.012061546 -0.0007953133 0.07521423
0000d0 8e 52 0f 3d c5 50 cb 3b 2a 43 b9 bd 80 1e 0d 3d
       0.03499084 0.006204697 -0.09046014 0.034452915
0000e0 2c d7 b3 ba f1 45 2b bd e6 bd 9f bd d6 10 ba bd
       -0.0013720742 -0.04181475 -0.07799892 -0.090852425
0000f0 a3 c5 0c bc 93 10 c5 bd 5c 37 c1 bd 5a e4 45 bd
       -0.008592042 -0.09622302 -0.09434387 -0.048313476
000100 31 08 14 bc b5 fb 56 3c 67 9f 4d bd 43 92 d4 bc
       -0.009035156 0.013121535 -0.050200846 -0.02594865
000110 be e4 98 3c fd 8c ec bc c4 a6 a8 bc fe f2 9f 3c
       0.01866376 -0.028875822 -0.020587333 0.019525047
000120 9f fb 99 3d 5d ad 8f 3d 4c e5 51 3c 18 ff 57 3d
       0.07518696 0.07015488 0.012811016 0.05273351
000130 e2 23 4b bc 87 86 56 bd 2b 27 bd bc f7 97 5e bd
       -0.012398692 -0.05237439 -0.023089966 -0.054344144
000140 8b 54 6c 3d 75 2d 03 3d c8 11 e4 3c 58 16 a0 bc
       0.057697814 0.032025773 0.02784051 -0.019541904
000150 46 66 84 3b e1 f2 cb 3c ce 76 8a bb 45 82 bc bc
       0.0040405123 0.024896087 -0.0042255884 -0.023011336
000160 00 5f 00 bd fe 4f 8b 3d a0 a6 a4 3c 3b e8 93 bc
       -0.0313406 0.06802367 0.020098984 -0.018055072
000170 d3 ab 19 bd cf 4e 41 bc b5 90 69 3d 09 d6 18 3d
       -0.03751738 -0.011798575 0.05702277 0.037313495
000180 9e 79 e4 3c ee 67 1d bb 31 7b b9 3c 79 6a 29 3d
       0.027890023 -0.0024018246 0.02264175 0.041361306
000190 ce 3f 8d bc d9 7d e0 bb a4 7f 99 bc 8a c9 be bc
       -0.017242339 -0.0068509397 -0.018737622 -0.02328946
0001a0 e3 d0 82 bc 7b 8e c0 3c 9e 75 0c 3c ba 6a 11 3c
       -0.015968746 0.02350544 0.008572964 0.008875543
0001b0 94 d7 98 3c f9 82 fb bb 74 34 9c 3c 5f e0 7a 3c
       0.018657483 -0.0076755253 0.01906798 0.015312283
0001c0 f3 58 c3 3c 0d e6 81 bc 37 5d 87 bc e3 72 02 3c
       0.023846125 -0.015856767 -0.01652394 0.007961961
0001d0 4c 7c d2 3c 0d 6b 02 bb 3e e5 9f 3c 75 5c c4 3c
       0.025694035 -0.0019900233 0.01951849 0.023969868
0001e0 5b 7e 8b 3b aa 8f 12 3d 27 63 84 bc 3e e5 90 3c
       0.004257006 0.03578154 -0.01616056 0.017687436
0001f0 53 7b 4a 3c b6 63 1d 3c a9 09 bb 3c 12 71 e8 3c
       0.012358504 0.0096062925 0.022831755 0.028374229
000200 96 c2 8a 3d d6 ed ac 3d b6 a8 08 bd 13 05 65 3b
       0.067753956 0.08443801 -0.03336402 0.0034945651
000210 fb 41 42 3d 7f 51 00 bd 1c cf 25 bd 66 18 1e bd
       0.047426205 -0.03132772 -0.040480718 -0.038597487
000220 3a 1b f2 bc 5a 78 37 3b 39 0e 4f bd ad cd 82 bd
       -0.029553998 0.002799532 -0.050550673 -0.06386886
000230 89 ac 5c 3c 59 bb 21 bc 44 c7 52 3a 42 77 98 3c
       0.01346887 -0.009871327 0.0008040557 0.018611554
000240 10 b7 d8 bc 9c a5 35 bc db 23 07 3d 99 68 a4 3d
       -0.026454479 -0.011086848 0.03299318 0.08027763
000250 93 f5 9b 3a 3e 6a 64 3d 3f 05 8d bc 2a 9a 14 bd
       0.0011898748 0.055765383 -0.017214416 -0.036279835
000260 26 0b 3b bb 01 75 3b bd 22 f0 6d bc 3e 2f 3c 3c
       -0.002854058 -0.04576588 -0.014522584 0.011485873
000270 af 4d 00 3c 2f 38 9d 3b 0e 5f 86 ba 28 a1 06 bc
       0.007831021 0.0047979574 -0.0010251717 -0.008217134
000280 af 87 13 bd 12 e8 83 3c c2 0b 63 bd 09 14 0d bd
       -0.03601807 0.01610187 -0.055431135 -0.034442935
000290 38 3f a5 bc 70 d1 c0 bc 12 27 48 ba e6 ff c8 bb
       -0.020171747 -0.023537368 -0.00076352165 -0.006134021
0002a0 24 9f ee 3a dd 36 c0 bb 01 c4 34 3d f7 f5 21 bc
       0.0018205387 -0.005865915 0.044132236 -0.009885303
0002b0 9b 2f b1 bb bb e8 57 3c a3 52 2f 3d 0e ea ce 3c
       -0.0054072863 0.013178046 0.042803418 0.02525809
0002c0 c7 68 8f bc a1 6b fc 3c 91 77 6b bd 39 65 d3 bc
       -0.017506016 0.03081304 -0.057487074 -0.025805103
0002d0 43 42 03 bc cf 3b 26 3c dc 67 48 3d e6 69 f0 ba
       -0.0080114035 0.010146095 0.048927173 -0.0018342107
0002e0 03 90 03 3d 95 31 b9 bc 91 68 0e 3d bc 50 41 bd
       0.032119762 -0.02260665 0.03476769 -0.047196135
0002f0 96 84 01 bd e7 72 2c bd 92 26 d1 3c 7f b2 fb 3b
       -0.031620584 -0.042101767 0.025531087 0.0076811905
000300 db 2b 06 bd e7 ae 91 bd fd 35 ce bd 68 0a 09 bc
       -0.032756668 -0.07113438 -0.10068891 -0.008364297
000310 7a 09 6e bd 4c 75 29 bd de 48 38 bd d4 c4 5d bc
       -0.058114506 -0.04137163 -0.044991367 -0.013535697
000320 bd 9e 39 bb 75 2c 64 3c 5e 08 17 bc 2a 9b 2f 3d
       -0.0028323375 0.013926615 -0.0092183035 0.042872585
000330 a0 44 39 bd 7a 3a f9 bb 74 e5 8a 3c 1a ec 2a bc
       -0.04523146 -0.007605848 0.016955115 -0.010432268
000340 a1 42 00 bd 58 6f 66 bd 2b 9a 03 bd 20 26 a1 bd
       -0.031313542 -0.05625853 -0.032129448 -0.078686
000350 be f5 45 bd 02 c0 d6 bb db 35 78 3c 67 33 db 3c
       -0.04833006 -0.006553651 0.015149559 0.026757909
000360 ea 97 a4 bd 53 7d 25 bd be 02 2c 3d 0b ac 33 3c
       -0.08036788 -0.04040272 0.041994803 0.010966311
000370 54 13 4a bc fc 32 06 bd cd 22 3c 3d 71 08 3f 3d
       -0.01233371 -0.032763466 0.045931626 0.04663891
000380 72 79 81 3d 91 56 ab bb a5 7e a0 3c b5 81 0b b9
       0.06321992 -0.0052288254 0.019591639 -0.00013304393
000390 7a b2 27 3c 33 79 00 3c e3 0a 08 3d 25 49 d8 bc
       0.010235423 0.007841396 0.033213507 -0.026402066
0003a0 31 9e 6d 3c 75 45 70 bc f7 35 5c 3b 98 c1 f3 bb
       0.014503048 -0.014664997 0.0033601501 -0.0074388497
0003b0 e2 b2 96 3c 1f 84 8f 3b 63 95 a6 bc 16 d0 0d bc
       0.018395845 0.0043797637 -0.020334905 -0.008655569
0003c0 7b 8e 96 3b da 82 39 3c 43 0e d0 bc c6 de b4 3c
       0.0045946217 0.011322701 -0.025397426 0.022078883
0003d0 2f 28 d2 3c 54 bd 07 bd a7 38 11 bc b4 fe 9c 3b
       0.025653927 -0.03313954 -0.008863605 0.004791105
0003e0 45 8d 91 bc 69 e1 b8 3c 7b 8b 58 bc 1d d1 91 bc
       -0.017767558 0.022568421 -0.0132168485 -0.017799908
0003f0 40 4c 8f bc 77 71 c3 bb 12 9b bf bc d5 c1 88 3c
       -0.017492414 -0.005964454 -0.023389373 0.016693989

bias f4 [80]
000000 ad c9 8b bc 08 b9 b7 bc 2a 53 f3 3c d7 b3 89 bd
       -0.01706394 -0.022427097 0.029702742 -0.06723755
000010 56 ac 88 3c ea 47 91 bc 19 dd 3d 3d 0e da a5 bc
       0.016683739 -0.017734487 0.046353433 -0.020245578
000020 02 ec 95 bc f0 a6 a5 3c 4a a2 fd bc 96 78 fa b9
       -0.018301014 0.020221204 -0.030961175 -0.0004777356
000030 32 3a 7a bd 0e 0f 83 3d e0 7e 81 3d 06 3c 13 bd
       -0.061090656 0.06399356 0.063230276 -0.035945915
000040 6f 99 29 bd 0e cc 1d 3c 52 4a 8f bc d4 52 9c bc
       -0.04140609 0.00963117 -0.017491493 -0.019082464
000050 5c e1 4a bc df 28 e0 3b bb 66 9f bb e6 fb 51 3d
       -0.012382831 0.0068408097 -0.0048645413 0.05126562
000060 7d f2 84 3d 47 67 ac bc 45 31 16 bc 06 ba 5e bb
       0.064915635 -0.02104534 -0.00916702 -0.003398539
000070 84 e8 37 3d 63 42 67 3b d1 67 79 3d d0 e6 15 bd
       0.04489948 0.0035287372 0.060890023 -0.036597073
000080 d8 13 63 bc 9a c0 c0 3c 55 4d dc bc e2 aa 6d 3b
       -0.013859712 0.02352934 -0.026892344 0.0036265184
000090 80 db 38 bd 7d e1 c2 bc ec 3a 5c 3c dc 84 73 bc
       -0.045131207 -0.023789162 0.013441782 -0.014863219
0000a0 47 51 80 3c 5a 27 15 3d b7 f9 9f bd 24 97 e7 bc
       0.015663756 0.03641448 -0.07811301 -0.028270312
0000b0 80 54 a5 bd 91 a7 b5 b9 ec 86 0c bd d4 a9 16 3c
       -0.08072758 -0.00034647857 -0.03430836 0.009195764
0000c0 0e 6b 87 3c d6 47 93 bc 8b 91 a6 3c 6b 71 81 3d
       0.01653054 -0.01797859 0.020333072 0.06320461
0000d0 f1 c2 3f bc 4d 62 3e bd ec fa 31 bd cc b2 26 bd
       -0.0117041925 -0.046480466 -0.04345219 -0.040697858
0000e0 c0 fd ce bc 23 db 9b bb 8c 41 ed bc 0a 7e 38 3d
       -0.025267482 -0.0047563477 -0.02896192 0.045042075
0000f0 82 7e 34 3d 03 c1 eb 3c 92 90 59 3c e4 9e 28 bc
       0.04406596 0.028778559 0.013279097 -0.010291789
000100 3d 6a 21 bb 49 68 6f 3c 5f db 13 bd bb 06 c9 3b
       -0.0024629973 0.014612266 -0.03609788 0.0061348355
000110 3a ed 8e bc ed 2a 8a bc 90 38 93 3d e4 66 2a bd
       -0.017447103 -0.016866172 0.07188523 -0.04160203
000120 43 d4 f3 3c 4f 8f 14 3d 1a b7 ce 3c 85 a4 e1 3b
       0.0297643 0.036269482 0.025233794 0.0068860673
000130 60 49 44 bd 9d 04 1d bd f6 60 92 bb 6b db 32 3d
       -0.04792154 -0.038334478 -0.004467125 0.043666285

weight f4 [10, 80]
000000 81 63 8b bd e7 7b a4 bc 3e b9 cd 3d e6 36 8a bd
       -0.06806088 -0.020078612 0.10045098 -0.06748752
000010 37 db f1 bd 1e 13 56 3d e0 4c a2 bd 08 53 e9 bc
       -0.1180939 0.052264325 -0.07924819 -0.028481975
000020 1b 31 18 3d 64 d1 47 ba 72 ac 34 bd a2 7f 5d 3d
       0.037156206 -0.0007622449 -0.04410977 0.0540768
000030 1f eb ea 3d 74 88 32 3d af 16 23 bd 47 0f 0b bd
       0.11470627 0.043587163 -0.039816555 -0.033950116
000040 46 d1 09 bc 5a a4 11 3c 76 8a 07 be 87 04 05 3e
       -0.008411711 0.008889282 -0.13236412 0.12990008
000050 60 80 c6 bd 03 ae 93 ba 66 ca 46 bd da 35 b0 bd
       -0.09692454 -0.001126707 -0.048532866 -0.08604021
000060 af 83 8d bd 57 6e 23 be 22 91 de bd fb 55 b3 bd
       -0.06909882 -0.1596006 -0.10867526 -0.08756634
000070 f8 27 f6 3d 58 0a a2 3d 53 81 10 3e ea 11 68 bd
       0.12019342 0.07912129 0.14111833 -0.05665771
000080 18 60 fd bd 4f 8c 09 be c2 ea e6 3d b2 67 96 3c
       -0.12371844 -0.1343243 0.11275245 0.018359993
000090 ef 3d a6 bd b7 f0 8a bd 1d 05 ef bd a5 91 7b 3c
       -0.08117282 -0.06784194 -0.11670897 0.015354549
0000a0 42 00 b1 3d 1c 97 75 3a e0 f0 ca 3d b0 77 cb 3d
       0.08642627 0.00093685254 0.099092245 0.09934938
0000b0 0d 39 de bd 79 72 da 3d 1c b5 81 bd 19 56 6f 3d
       -0.10850725 0.10666365 -0.06333372 0.05843172
0000c0 7f a4 42 bd 51 22 23 3b 18 c2 1b 3d 93 c4 3d bd
       -0.047520157 0.002489228 0.0380269 -0.046330046
0000d0 6b 33 fd 3d 32 8a a2 bd e8 b7 f4 bd 78 23 04 be
       0.12363323 -0.07936515 -0.1194914 -0.12904155
0000e0 af 5a 04 3e dc 88 c4 bd 1b 9f ac bd 5d 2e c5 bd
       0.12925218 -0.09596416 -0.084287845 -0.09627984
0000f0 64 12 10 be f7 a2 e9 3d 67 41 f7 3d 28 13 be 3c
       -0.14069515 0.11408036 0.120730214 0.023202494
000100 86 59 81 bd ed 81 f2 3d 4c 4e dc 3d 44 6d 92 3d
       -0.06315903 0.118411876 0.107571214 0.07149747
000110 aa 09 0b 3d b1 22 84 3d 85 c3 68 bd c1 e6 73 bd
       0.033944763 0.06451929 -0.056827087 -0.059546236
000120 37 45 7f bd 67 87 92 bd a7 56 1b be 75 38 14 be
       -0.062321868 -0.07154732 -0.15169774 -0.14474662
000130 9a 6b 07 3a 0d b4 cc bd 8a 34 ac bc 98 35 99 bd
       0.0005165875 -0.099952795 -0.021021146 -0.07480925
000140 9c cc 63 39 7d f4 aa bd 4b 57 dc 3a 1e f6 cf bc
       0.0002172463 -0.08347414 0.0016810683 -0.025385913
000150 06 d7 f1 3d 93 71 cd bd 4b 30 ab 3d 80 c9 2f bd
       0.118085906 -0.10031428 0.083588205 -0.042916775
000160 8a 29 1a 38 bc 82 07 3e 67 37 66 bd ef 5e 48 3d
       3.6755147e-05 0.13233465 -0.05620518 0.04891866
000170 e3 b6 13 be 39 d5 ce 3d 1a 72 86 3c a0 f7 5f bd
       -0.14425234 0.10099263 0.01641183 -0.054679513
000180 7a 6c dd bd 19 09 51 3d cd 2b 81 3b c2 2c 01 be
       -0.10811706 0.051034067 0.003941989 -0.1261473
000190 1e 9e c7 bc cb 66 b8 bc 36 21 51 bd a9 89 f3 3d
       -0.024367388 -0.022509953 -0.051057063 0.11891491
0001a0 b1 96 06 3e 95 24 27 bd 41 2e a6 3d d9 79 71 bd
       0.13143422 -0.04080637 0.08114291 -0.058954094
0001b0 5c 9a 04 3c 05 37 ff 3d f6 ee cc 3d d6 5a ac 3c
       0.008093443 0.12461666 0.10006516 0.021039408
0001c0 27 65 82 3d 76 93 e8 ba ee c4 14 be b7 cf 07 bd
       0.063669495 -0.0017744142 -0.14528248 -0.033157077
0001d0 30 7c c0 bd 8a 4b f1 3c 50 1f 2d 3c 51 49 f5 3d
       -0.09398687 0.029454965 0.0105665475 0.119768746
0001e0 05 02 e0 bc f6 c0 43 3d d9 5f a6 bd 2b a1 89 ba
       -0.027344713 0.047791444 -0.0812375 -0.0010500302
0001f0 bf 24 12 bd 4a db 8d 3b 7f c2 57 bd c0 f2 88 3d
       -0.035679575 0.00432912 -0.05267572 0.06686926
000200 5a b2 13 bd 96 aa 09 be e0 6c 51 3d 9b 3a 8e 3d
       -0.03605876 -0.1344398 0.051129222 0.06944772
000210 39 e0 2e bd 10 9b b8 bd 48 e1 bd bd 03 5a 04 be
       -0.042694304 -0.09013951 -0.092714846 -0.12924962
000220 48 60 8c bd b8 c8 15 bd 58 b7 8a bd 68 7d 74 3d
       -0.06854302 -0.036568373 -0.06773251 0.05968991
000230 69 2b ad 3d 9e a6 67 3d 91 7c a6 3c cd 10 9b bd
       0.084555455 0.056555383 0.02032307 -0.07571564
000240 93 2d ca 3c f2 1b b3 3d 25 79 0f bc 50 78 c3 bc
       0.024679935 0.087455645 -0.00875691 -0.02386108
000250 9a bd a3 bd 42 b5 7e 3c ae 84 9e 3d d5 4c 80 bd
       -0.07995148 0.015546145 0.077401504 -0.062646545
000260 1d 19 71 3d fd 85 11 bd 72 f6 06 3d 3c df 9b bd
       0.05886184 -0.03552817 0.032949872 -0.07610938
000270 22 5f d6 bd af a4 c5 bd a1 b2 95 3d 79 10 46 3d
       -0.10467364 -0.096505515 0.073094614 0.048355553
000280 1c c2 03 be a2 82 5f bc 60 3a d6 3d c5 91 d7 bc
       -0.12867016 -0.013641985 0.10460353 -0.026314626
000290 ed a7 d8 bd d5 ec 14 3e 0d 40 f5 bd e6 72 8f bd
       -0.10578904 0.14543469 -0.11975107 -0.07004337
0002a0 90 19 c8 3d 26 a9 ac bd 82 18 d0 3d 25 1b ee 3d
       0.09770501 -0.084307 0.101609245 0.11626271
0002b0 68 37 27 bc 33 4e bc 3c 1f df df bd e5 b5 9e 3d
       -0.010206081 0.022986507 -0.10931229 0.077495374
0002c0 4f c8 81 bd 6b a7 14 3d ff 05 01 3d fa 53 a7 bd
       -0.06337034 0.036292475 0.03149986 -0.08170314
0002d0 d3 d4 fa 3d 36 96 6a bd 09 61 89 bd a3 00 cd 3c
       0.12247624 -0.05727216 -0.06707961 0.025024718
0002e0 79 ce 8e bc 45 0e ca 3d 0f 06 99 bd ba f3 f1 bd
       -0.017432438 0.09866003 -0.07471859 -0.11814065
0002f0 f6 80 62 3d d2 59 ff 3d 04 25 34 be 8e 8a ce 3d
       0.055298768 0.12468304 -0.17592245 0.10085021
000300 8e 3b e5 3d f4 30 5d 3d 82 28 c0 bd 02 3c 3b 3c
       0.11193 0.054001763 -0.09382726 0.011427881
000310 d7 6a c9 3c cc c3 79 3c e0 aa 98 bd fa 2d 5a 3d
       0.024587078 0.0152444355 -0.07454467 0.053266503
000320 bc fe e4 3d 4e e0 23 3d 30 f9 18 3e 81 0f 16 bd
       0.11181399 0.040008835 0.14938807 -0.03663588
000330 1c 97 ae 3d fa 14 9f 3c 51 76 06 3e 0a 07 53 3d
       0.085249156 0.019419182 0.13131072 0.051520385
000340 8a ca 47 3c fb 19 73 3c 83 3b 21 3d 48 a3 d5 3c
       0.012194285 0.014837737 0.039363395 0.026078835
000350 f9 f2 b8 3d aa d1 ad bc 04 47 ef bd 65 ce b6 3c
       0.09030718 -0.02121814 -0.11683467 0.022315213
000360 27 95 a4 3c 25 eb b9 bd b1 a9 a0 bd 47 bc 05 3d
       0.020090653 -0.090780534 -0.07844866 0.03265026
000370 18 11 40 bd 6b 16 be bd ca 16 12 3e 1b 2d 2f bc
       -0.046891302 -0.0928162 0.14266506 -0.010691906
000380 d4 ca ee 3d 6f 8f 7d 3d a2 5f d4 3d 99 85 88 bd
       0.1165978 0.061904367 0.10369803 -0.06666107
000390 ed b8 15 bd ca 88 1c 3c d1 84 ee bc 73 f1 b4 bc
       -0.036553312 0.009554097 -0.029116066 -0.022087788
0003a0 10 5f d8 bd c1 42 7f bc b2 86 d8 bd 53 a8 4a 3c
       -0.10565007 -0.01557988 -0.10572566 0.012369233
0003b0 07 91 d0 bc d0 56 9e bd ce 0e e7 3d 65 fc da bd
       -0.02545978 -0.07731402 0.11282121 -0.10692672
0003c0 09 73 6e bd e6 4a 1b 3e 1d ae a9 3d fe 80 7e 3d
       -0.058215175 0.1516529 0.082851626 0.062134735
0003d0 49 45 bb bd 1d d6 74 bd c1 6e bd bd 10 8e 04 bb
       -0.091440745 -0.059774507 -0.0924964 -0.0020226277
0003e0 fa 6f d2 3b 0e 55 15 bb 62 4e b8 3d a6 e5 b4 3d
       0.00642204 -0.0022786292 0.08999325 0.088328645
0003f0 78 6a 6c bc a1 ff b3 bd e8 51 5f be 72 e6 94 3d
       -0.014429681 -0.08788992 -0.21808589 0.072705165

bias f4 [10]
000000 e2 e9 9f bd 9d 5e 13 3e ba f8 85 3d 47 cd 71 bd
       -0.078082815 0.14391561 0.065415815 -0.05903366
000010 3f b5 d1 3d a9 63 0a bd 35 47 62 3c 60 f2 03 3e
       0.10239648 -0.03378645 0.013810922 0.12885427
000020 a3 a8 86 3d 8b ee bb 3d
       0.06575134 0.09176358
