sample data/models/model_basic/model5MseLossSampleWithOutNormalize.pth (torch, 338869 bytes, 15 tensors)

weight f4 [64, 10, 3, 3]
-0.06130428 0.0011531414 -0.102857865 0.07136554 -0.06197619 0.007972464 0.015257984 0.05512958
-0.06921499 0.043721043 -0.029097816 -0.036286026 -0.060780097 -0.11442614 0.016679779 -0.08636057
-0.05083549 -0.02912313 -0.01557845 -0.026596747 -0.0824636 -0.10721157 0.02373658 0.047901373
0.034218572 -0.09118215 0.004898878 0.061835267 -0.04340412 -0.025423001 -0.035368845 0.06787564
-0.061685685 -0.066147365 -0.087785505 -0.06087925 -0.023574753 0.039564397 -0.010234428 0.026155084
-0.06414042 0.015877606 -0.055944264 -0.030743245 -0.009671448 0.011880233 -0.03566789 -0.04029997
-0.010229621 0.09493155 -0.006773043 0.007398334 -0.03771125 -0.009268448 0.0985354 0.07233155
-0.02699151 -0.037343737 -0.050090585 -0.07125277 -0.022560759 0.024942009 -0.053772703 -0.065669775
0.00012622643 0.022926705 0.11318458 -0.0076255635 0.101739906 0.002483632 0.066749446 0.068844065
-0.0383405 -0.07695458 -0.003947391 0.03384194 0.095385045 -0.022728024 0.0011169156 -0.03747725
0.007794203 0.01574806 -0.07735756 0.0069677024 0.036736086 0.022018228 0.05835246 0.009893485
-0.06694179 -0.060557384 -0.07447544 0.0033477778 0.0015622398 0.013847468 -0.009370311 0.00394075
0.08247036 0.040378697 0.12670587 0.011208014 0.033963755 0.05276409 0.027533073 0.093098074
0.023134302 0.00826628 -0.08888857 -0.041970402 0.121162064 -0.039632794 0.12503305 0.051503602
0.012742368 -0.064582646 -0.04840253 0.12826201 -0.019431943 0.029053139 -0.07722764 0.00078787317
0.096089326 -0.088870935 0.103922054 0.10261753 0.015906105 -0.012222875 0.09339815 -0.0045749745
-0.040815372 0.00037156872 0.02506277 0.057964895 -0.053637207 -0.014604233 -0.0097473655 -0.05728079
0.05491968 -0.054419953 0.09196383 0.08131976 0.03436994 0.08186332 0.035910726 0.011125057
-0.056217607 -0.04649492 0.005333833 0.06698588 0.043863866 0.04495534 -0.0704425 -0.066693366
0.07325429 -0.08681138 -0.030331044 0.03017249 -0.07806441 -0.048037194 -0.05709936 0.048147604
-0.011084758 -0.012923709 0.031387717 0.027144844 0.031775072 0.07894256 0.08142853 -0.056301404
0.050235614 -0.07215256 -0.08830623 -0.0024947717 -0.047524173 -0.028921649 -0.0046865907 -0.09567065
0.07492159 -0.00063032715 0.085612066 0.07891616 -0.13011928 -0.040716864 -0.09827915 -0.104035564
-0.06700794 -0.050847147 -0.004703841 0.017154291 0.092408195 0.07817279 -0.10310318 -0.061293792
-0.0028445416 -0.04625417 -0.009838448 0.041785378 -0.09879044 -0.05530131 0.013508105 -0.014317608
-0.14194351 0.05131258 0.008694726 -0.13231447 -0.114188954 -0.10940967 0.032368418 -0.060669485
-0.13389263 -0.07103319 -0.012973398 -0.093806416 0.013476039 0.013876934 -0.086034656 -0.024677385
-0.12892398 -0.070188366 -0.1453637 -0.0019945737 0.03407707 -0.01733297 -0.025503948 -0.055987507
0.0014543786 0.06781446 0.0067500593 0.0024787749 -0.09292647 -0.12785238 -0.01749679 -0.08746919
0.07921415 -0.004411813 -0.08536149 0.080006994 -0.037954483 0.10315698 -0.054114323 -0.026285045
0.100208774 0.0022916407 0.033288043 -0.10503009 0.00835295 0.0021455858 -0.06762298 -0.11841547
-0.03693809 -0.053482033 0.0054557687 0.061292235 0.048510864 0.01512467 0.008386759 0.110186845
00000000: 321a 7bbd 0125 973a 25a7 d2bd 1928 923d
00000010: bfda 7dbd f09e 023c a0fc 793c 8ecf 613d
00000020: 97c0 8dbd d614 333d 8b5e eebc a8a0 14bd
00000030: 8df4 78bd 4158 eabd 08a4 883c cfdd b0bd
00000040: e038 50bd a193 eebc c13c 7fbc 6ce1 d9bc
00000050: ade2 a8bd bd91 dbbd 3773 c23c 3b34 443d
00000060: c628 0c3d b5bd babd c486 a03b fa46 7d3d
00000070: 85c8 31bd e643 d0bc ecde 10bd 6202 8b3d
00000080: 21aa 7cbd 4578 87bd e3c8 b3bd 855c 79bd
00000090: d71f c1bc 470e 223d 4dae 27bc 3043 d63c
000000a0: 0d5c 83bd c111 823c d025 65bd 42d9 fbbc
000000b0: fe74 1ebc 4fa5 423c 7e18 12bd 9511 25bd
000000c0: 249a 27bc 796b c23d 67f0 ddbb b96d f23b
000000d0: 1d77 1abd b0da 17bc eecc c93d 9022 943d
000000e0: 4d1d ddbc bff5 18bd c92b 4dbd f9ec 91bd
000000f0: 57d1 b8bc 2f53 cc3c c440 5cbd e07d 86bd
00000100: a65b 0439 c9d0 bb3c 51cd e73d dddf f9bb
00000110: 035d d03d 6ec4 223b efb3 883d 1efe 8c3d
00000120: ee0a 1dbd 5d9a 9dbd 1e59 81bb d99d 0a3d
00000130: 3c59 c33d 1f30 babc 7865 923a bf81 19bd
00000140: 8366 ff3b 1302 813c a46d 9ebd 5351 e43b
00000150: 9478 163d 925f b43c fd02 6f3d 4918 223c
00000160: c718 89bd 050b 78bd 9486 98bd 6466 5b3b
00000170: 12c4 cc3a 7ee0 623c ef85 19bc 6821 813b
00000180: 38e6 a83d 2264 253d 2fbf 013e d1a1 373c
00000190: 941d 0b3d 291f 583d 0a8d e13c 34aa be3d
000001a0: 2684 bd3c 4b6f 073c 360b b6bd 28e9 2bbd
000001b0: d123 f83d ff55 22bd aa08 003e 71f5 523d
000001c0: 5dc5 503c e843 84bd bb41 46bd 1e57 033e
000001d0: bd2f 9fbc d900 ee3c 8629 9ebd 4689 4e3a
000001e0: 7bca c43d f701 b6bd 16d5 d43d 2429 d23d
000001f0: 854d 823c 7442 48bc 8747 bf3d abe9 95bb
00000200: 052e 27bd 1ccf c239 7050 cd3c 996c 6d3d
00000210: b0b2 5bbd 9846 6fbc 6ab3 1fbc 439f 6abd
00000220: 75f3 603d 75e7 5ebd 8857 bc3d f98a a63d
00000230: 7fc7 0c3d f5a7 a73d 2017 133d df45 363c
00000240: 6f44 66bd 7571 3ebd 6fc7 ae3b e52f 893d
00000250: 99aa 333d 1723 383d 2844 90bd 8896 88bd
00000260: 5806 963d 2aca b1bd cf78 f8bc 4c2c f73c
00000270: 3ce0 9fbd a6c2 44bd 05e1 69bd 6c36 453d
00000280: d89c 35bc f7bd 53bc 6890 003d dd5e de3c
00000290: 9426 023d a3ac a13d 00c4 a63d 4d9c 66bd
000002a0: dcc3 4d3d b9c4 93bd e6d9 b4bd 537f 23bb
000002b0: b5a8 42bd 18ed ecbc f991 99bb f9ee c3bd
000002c0: 7e70 993d 8a3c 25ba 6155 af3d cc9e a13d
000002d0: fd3d 05be bac6 26bd 9446 c9bd 9910 d5bd
000002e0: 753b 89bd 1945 50bd ae22 9abb 2887 8c3c
000002f0: 8240 bd3d 0e19 a03d c327 d3bd 330f 7bbd
00000300: 7d6b 3abb 0375 3dbd 7131 21bc 2527 2b3d
00000310: a452 cabd a083 62bd 1951 5d3c 6794 6abc
00000320: a459 11be 242d 523d 5374 0e3c 727d 07be
00000330: e6db e9bd 2d12 e0bd bf94 043d 9180 78bd
00000340: 261b 09be d979 91bd 608e 54bc 941d c0bd
00000350: 9bca 5c3c 145c 633c f032 b0bd 3a28 cabc
00000360: a604 04be ebbe 8fbd 39da 14be 65b7 02bb
00000370: 6694 0b3d dffd 8dbc a8ed d0bc 2853 65bd
00000380: d9a0 be3a 4fe2 8a3d 9a2f dd3b f172 223b
00000390: 3c50 bebd bceb 02be 6e55 8fbc 0c23 b3bd
000003a0: 073b a23d f890 90bb 01d2 aebd b5da a33d
000003b0: 2976 1bbd f743 d33d fba6 5dbd bc53 d7bc
000003c0: 423a cd3d 5a2f 163b 0b59 083d 041a d7bd
000003d0: d0da 083c f59c 0c3b eb7d 8abd cf83 f2bd
000003e0: 654c 17bd fa0f 5bbd 4ec6 b23b 910d 7b3d
000003f0: 54b3 463d 77cd 773c 9e68 093c a4a9 e13d

bias f4 [64]
0.03507746 -0.108815566 0.051187046 -0.061445273 -0.051121306 0.0074103866 0.07760704 -0.027578006
0.02107504 -0.0092680175 0.0019340074 0.13864735 -0.06063704 0.020148598 0.111676514 0.11320567
-0.026726177 0.09149213 0.066178314 0.0008423193 0.102779105 0.07258132 0.07334575 0.07417705
0.025233418 0.1001014 0.005950093 0.031837832 -0.00038069097 0.05769223 0.09468902 0.1351953
0.028555585 -0.061591 0.07374797 0.0827441 -0.09729961 0.13012967 -0.019845147 0.010017301
-0.01758508 0.052203927 0.06652929 0.039626893 0.019591197 0.11913529 -0.005580945 0.18759733
0.07892485 0.06778834 0.063035086 0.099405475 -0.05068468 0.07741851 -0.07729382 -0.0052024513
0.066679925 -0.03520142 0.03998396 -0.04140246 -0.07684718 0.10427574 0.027018614 0.07019348
00000000: 62ad 0f3d b2da debd 82a9 513d 0aae 7bbd
00000010: 9364 51bd d4d2 f23b 71f0 9e3d 45eb e1bc
00000020: 90a5 ac3c e2d8 17bc 857e fd3a 92f9 0d3e
00000030: 8b5e 78bd ac0e a53c a8b6 e43d 60d8 e73d
00000040: dbf0 dabc 3a60 bb3d 7f88 873d 17cf 5c3a
00000050: da7d d23d 84a5 943d 4c36 963d 23ea 973d
00000060: 50b6 ce3c f601 cd3d fff8 c23b 6368 023d
00000070: 7a97 c7b9 b04e 6c3d 51ec c13d a370 0a3e
00000080: 67ed e93c d846 7cbd 2d09 973d bd75 a93d
00000090: 0545 c7bd b640 053e 4a92 a2bc 9b1f 243c
000000a0: 960e 90bc c9d3 553d 8240 883d cf4f 223d
000000b0: b87d a03c 34fd f33d 5ce0 b6bb 8419 403e
000000c0: 5aa3 a13d 9dd4 8a3d 8a18 813d 1995 cb3d
000000d0: bd9a 4fbd 998d 9e3d 394c 9ebd 5379 aabb
000000e0: 7c8f 883d 5d2f 10bd 39c6 233d a095 29bd
000000f0: 0e62 9dbd 858e d53d 2456 dd3c 99c1 8f3d

weight f4 [64, 64, 3, 3]
0.026114648 0.0192595 -0.0067042145 -0.00598117 -0.028947802 -0.019487096 0.016909363 -0.01742931
0.020092282 -0.001284629 0.014281827 -0.026242593 0.016827468 0.002795097 -0.03096299 -0.018108059
-0.043974906 -0.04577994 0.00076339854 0.031017395 -0.0053267614 -0.026468176 0.022209475 -0.011463955
-0.0024214273 0.013679648 -0.015375977 0.018838417 -0.013276596 0.0088436045 -0.015192064 0.008306521
0.056104776 0.017908366 0.01893126 -0.0042518573 -0.01882768 -0.015508079 -0.01187692 0.02509679
0.02888602 -0.0059074983 -0.011461154 -0.038126286 0.020425007 -0.023278924 -0.01794184 0.06047844
0.029405601 0.0343861 0.064567864 0.012596205 0.04535356 -0.0018524136 0.02836837 0.015474118
-0.0047612153 -0.042328212 0.015557936 -0.02976022 0.020968169 -0.0023968515 0.016617578 0.04250926
-0.023811396 0.038650274 0.032186944 0.0044934074 0.049442817 -0.009115058 -0.025141228 0.0025131034
-0.034152966 0.027341677 0.021440346 -0.007395542 0.009574211 0.025846025 0.028724203 0.026742743
0.011444272 -0.0074900365 0.010482742 -0.045821413 -0.041995306 -0.036138095 -0.0076477113 -0.052557554
-0.032489594 -0.024122983 0.036494084 0.00833086 0.059824407 0.06943876 0.028535638 0.070222214
0.03750671 0.02408568 0.0043539642 0.034692958 0.038283084 0.011364633 0.045544498 -0.022798527
0.022561751 0.008343221 0.011284787 -0.008317656 -0.028463626 -0.03172394 0.047938023 0.03179556
0.045197368 -0.016203191 -0.029073333 0.011019993 0.0027886708 0.084207125 0.008251665 -0.0006324851
0.014697556 0.041041322 0.03175667 0.084710985 -0.006024339 0.02819958 -0.018349579 -0.05067611
-0.019165656 -0.036303956 -0.013117185 -0.04474597 -0.0005643451 -0.0048444313 -0.03312929 0.044735227
-0.013261814 0.05089097 0.032618083 0.04712893 0.00525145 0.030689433 0.018492857 0.0064793946
-0.0022394597 0.0044143912 -0.0175988 0.015497672 0.004488175 -0.046951666 0.0020793146 0.00907847
-0.042272076 0.035688844 -0.018213615 -0.0042244093 0.03121061 0.03162578 0.054191593 0.056356322
0.058758847 0.04628271 -0.012381809 -0.029354995 0.016861953 -0.01672881 0.023112161 0.018631753
-0.0030422718 0.037004456 0.049521457 -0.033215307 0.0035099017 -0.03666263 -0.04182985 -0.037767734
0.014588542 -0.044529263 0.02565828 -0.041782204 0.0031759676 0.025257176 0.025474964 -0.021729093
0.011830194 -0.02406975 -0.07063461 0.0052017225 -0.006287526 0.014438169 -0.013433518 0.03812158
0.03852782 0.021969646 -0.033549014 0.0029581776 0.006369387 -0.034232862 -0.043830924 -0.0033156902
0.004062899 0.018397348 -0.03623071 0.032219592 -0.06784695 -0.05710967 0.0021274006 -0.029117443
0.0025169258 -0.0038786335 0.004236395 -0.038935594 0.028245103 -0.032533143 0.0020149024 0.0286296
0.041181307 0.049388655 0.034596153 0.029259345 -0.005953712 0.039569546 0.06010794 0.028083008
0.034608025 0.051209748 0.02869347 0.022390155 0.0646175 0.061551716 -0.011493836 -9.703049e-05
0.05688013 0.045154426 -0.03746368 0.011669233 -0.017141735 -0.033129763 -0.04351787 -0.0025248737
-0.07652086 -0.026977222 -0.017865043 -0.017839743 -0.0149316 0.0240296 0.05604775 0.032955028
0.008979975 0.053586867 0.010301394 -0.0026166553 -0.002847036 -0.029217737 0.024846494 -0.015745195
00000000: 63ee d53c 19c6 9d3c 07af dbbb b1fd c3bb
00000010: f123 edbc 67a3 9fbc 8185 8a3c eac7 8ebc
00000020: 9298 a43c ff60 a8ba 53fe 693c b5fa d6bc
00000030: c2d9 893c f22d 373b 19a6 fdbc 5a57 94bc
00000040: 081f 34bd bf83 3bbd cf1e 483a 3118 fe3c
00000050: 1d8c aebb cad3 d8bc a5f0 b53c 50d3 3bbc
00000060: cfb0 1ebb 9a20 603c 86eb 7bbc 0653 9a3c
00000070: 1486 59bc c4e4 103c 23e8 78bc 1318 083c
00000080: 1fce 653d 91b4 923c bb15 9b3c 2a53 8bbb
00000090: 823c 9abc 9915 7ebc 6a97 42bc c997 cd3c
000000a0: 60a2 ec3c b093 c1bb 90c7 3bbc 4f2a 1cbd
000000b0: 5852 a73c 71b3 bebc c4fa 92bc 3eb8 773d
000000c0: 04e4 f03c 70d8 0c3d 283c 843d 5060 4e3c
000000d0: a8c4 393d b0cc f2ba c964 e83c 2887 7d3c
000000e0: f803 9cbb 5960 2dbd b7e6 7e3c b4cb f3bc
000000f0: 70c5 ab3c 7f14 1dbb 9621 883c 311e 2e3d
00000100: 1e10 c3bc c04f 1e3d 75d6 033d 6f3d 933b
00000110: 8d84 4a3d 5357 15bc faf4 cdbc e1b2 243b
00000120: fbe3 0bbd a7fb df3c aaa3 af3c 4e56 f2bb
00000130: 27dd 1c3c 0bbb d33c 054f eb3c 9913 db3c
00000140: c180 3b3c fb6e f5bb cfbf 2b3c 3caf 3bbd
00000150: 4503 2cbd 8a05 14bd a799 fabb 9746 57bd
00000160: cf13 05bd 909d c5bc d27a 153d 297e 083c
00000170: 700a 753d e935 8e3d 92c3 e93c aad0 8f3d
00000180: a3a0 193d 554f c53c b3ab 8e3b 341a 0e3d
00000190: b9ce 1c3d ba32 3a3c de8c 3a3d fac3 babc
000001a0: 6cd3 b83c 01b2 083c d4e3 383c c746 08bc
000001b0: 8d2c e9bc f6f0 01bd a95a 443d 103c 023d
000001c0: e020 393d 8ebc 84bc 332b eebc 338d 343c
000001d0: 22c2 363b c974 ac3d fe31 073c 5bcd 25ba
000001e0: 05ce 703c f21a 283d 4813 023d f47c ad3d
000001f0: d167 c5bb ce02 e73c db51 96bc c191 4fbd
00000200: 4b01 9dbc 75b3 14bd 76e9 56bc 8d47 37bd
00000210: 8ff0 13ba 09be 9ebb 94b2 07bd 493c 373d
00000220: 1448 59bc 0d73 503d 8a9a 053d 440a 413d
00000230: 5b14 ac3b 6868 fb3c 557e 973c 1a51 d43b
00000240: e6c3 12bb 99a6 903b 5c2b 90bc f3e9 7d3c
00000250: 8a11 933b 6450 40bd 1c45 083b ddbd 143c
00000260: 7c25 2dbd 772e 123d b834 95bc ea6c 8abb
00000270: 65ad ff3c 098a 013d 01f8 5d3d e3d5 663d
00000280: 1ead 703d f092 3d3d 12dd 4abc e379 f0bc
00000290: 1422 8a3c db0a 89bc b755 bd3c 9ea1 983c
000002a0: da60 47bb fc91 173d 03d7 4a3d c60c 08bd
000002b0: 6106 663b 8e2b 16bd c755 2bbd 57b2 1abd
000002c0: c804 6f3c 5164 36bd 5031 d23c d123 2bbd
000002d0: e523 503b 23e8 ce3c dfb0 d03c 3601 b2bc
000002e0: 6ed3 413c ed2d c5bc e1a8 90bd 3673 aa3b
000002f0: 9707 cebb 128e 6c3c 4218 5cbc 6025 1c3d
00000300: 59cf 1d3d b0f9 b33c b16a 09bd fcdd 413b
00000310: 4ab6 d03b c237 0cbd 0e88 33bd 0d4c 59bb
00000320: 1122 853b 09b6 963c a766 14bd b1f8 033d
00000330: 57f3 8abd d4eb 69bd dc6b 0b3b b487 eebc
00000340: 02f3 243b ac30 7ebb 75d1 8a3b ee7a 1fbd
00000350: 4662 e73c 7941 05bd 740c 043b 9f88 ea3c
00000360: bbad 283d c24b 4a3d b2b4 0d3d 4bb1 ef3c
00000370: 5b17 c3bb ad13 223d be33 763d 560e e63c
00000380: 25c1 0d3d 50c1 513d 910e eb3c 8f6b b73c
00000390: 2e56 843d a71d 7c3d a450 3cbc d97c cbb8
000003a0: 24fb 683d d9f3 383d 8473 19bd 5030 3f3c
000003b0: d36c 8cbc 13b3 07bd cb3f 32bd 5a78 25bb
000003c0: f8b6 9cbd 56ff dcbc b659 92bc a724 92bc
000003d0: aba3 74bc b9d9 c43c 5392 653d dafb 063d
000003e0: bf20 133c e77d 5b3d 2ec7 283c 317c 2bbb
000003f0: 5795 3abb 095a efbc e08a cb3c 11fc 80bc

bias f4 [64]
0.03784402 0.034678042 0.008144412 -0.024531491 -0.0431722 -0.029254077 0.012754788 0.026419671
0.027812852 0.048916314 -0.023225969 0.011094415 0.09599556 -0.009861664 -0.022857727 0.03234591
0.03135141 -0.00776804 0.0337639 -0.03282799 0.040335637 0.00042336533 -0.023800006 0.017682638
-0.019808203 0.022416607 -0.03411285 0.05684736 -0.04754777 0.018198488 -0.015481668 0.005319036
0.025157308 0.085176975 0.041173574 -0.016712407 -0.045651007 -0.028408946 -0.037765417 0.010268743
-0.0078978175 0.011405073 0.028830256 -0.016188841 -0.014345428 -0.03424458 9.938481e-05 0.0380769
0.007266191 0.012041731 0.078851216 0.01741653 0.012086949 0.018136151 -0.026460316 0.008297428
0.032240313 0.012783509 0.06065183 0.022425912 -0.022101762 0.034354363 -0.0135247 0.015199179
00000000: 5502 1b3d 900a 0e3d 2470 053c 44f6 c8bc
00000010: 55d5 30bd 3fa6 efbc 75f9 503c 116e d83c
00000020: c7d7 e33c 795c 483d 6344 bebc 59c5 353c
00000030: 5299 c43d d192 21bc 2140 bbbc 257d 043d
00000040: 566a 003d 0b8b febb 044c 0a3d a476 06bd
00000050: fb36 253d 22f7 dd39 3bf8 c2bc 2edb 903c
00000060: d044 a2bc 08a3 b73c eab9 0bbd c7d8 683d
00000070: 73c1 42bd ff14 953c d2a6 7dbc 4f4b ae3b
00000080: b316 ce3c 4471 ae3d 9fa5 283d 75e8 88bc
00000090: 8dfc 3abd e1b9 e8bc e9af 1abd 3b3e 283c
000000a0: d965 01bc 58dc 3a3c 6e2d ec3c 769e 84bc
000000b0: 1609 6bbc 0b44 0cbd d06c d038 86f6 1b3d
000000c0: 3a19 ee3b ae4a 453c bf7c a13d 1cad 8e3c
000000d0: 5708 463c 4492 943c 4ec3 d8bc eff1 073c
000000e0: 6b0e 043d ec71 513c 0e6e 783d 8cb6 b73c
000000f0: c10e b5bc 29b7 0c3d b496 5dbc fa05 793c

weight f4 [40, 64, 3, 3]
-0.013555765 -0.032911163 0.0019561173 -0.032333255 -0.013042654 -0.042717725 0.012372623 0.011253135
-0.008694571 -0.037586942 -0.024596224 0.0029630945 0.005903487 -0.0067955167 0.019361475 0.03853727
0.030577984 -0.0013430293 -0.035465106 0.02478037 0.019062081 -0.0023954788 0.018810326 -0.026909484
0.04395903 0.048588544 0.010915795 -0.0074139424 -0.011871014 0.01760888 -0.0069975834 -0.009233979
0.033213805 0.06854368 0.037813257 0.06012637 0.032281216 -0.031134631 -0.054252785 -0.008575413
-0.013216556 0.008270153 0.034856062 -0.04325684 -0.0021454096 0.016061494 -0.03194267 -0.0301958
0.03577537 -0.038929064 -0.00092355744 -0.023808287 -0.03791062 0.02643853 -0.011270488 -0.0015782599
-0.035554413 -0.042006306 0.02569268 0.0046499954 0.0161344 0.023167249 0.0073507032 0.05821844
0.030828392 -0.036824074 0.0050492156 0.036041476 -0.040437706 0.028712615 0.057931595 -0.04229871
0.06498134 0.056644995 0.038116284 -0.006791415 0.008481969 0.020735314 0.03217438 0.013344983
-0.029923683 -0.009625815 -0.028038949 -0.0113852555 -0.0015631327 -0.004762525 -0.015928313 0.0049566384
0.042427927 0.060508847 0.036292445 0.027100723 -0.020177873 -0.026671661 -0.011588656 0.024682658
-0.040161096 -0.03211154 -0.017595472 0.0043432266 -0.018309351 0.0033109856 0.028005803 0.0041939444
0.022081662 0.026907993 -0.017461605 -0.016180499 -0.031439967 -0.032073803 0.00052589463 -0.036950003
0.0031422693 -1.9041545e-05 -0.040922787 -0.051958438 0.016347427 0.01874503 0.003387525 -0.033839572
0.030135859 0.035507493 -0.038630374 0.017546944 -0.045297064 0.02479424 0.0029569909 -0.027445996
0.0016396482 -0.031987205 0.012780454 0.03700976 -0.023252945 0.015832273 -0.012193693 0.013012188
0.044552807 0.020574432 0.017840955 0.017426645 -0.065400556 0.061129343 0.042495765 -0.033184476
0.0060681347 0.036751535 -0.004416283 -0.016704893 0.030163651 0.0025739667 -0.003135444 0.040814627
0.013091957 -0.010811086 -0.025952647 -0.023030434 0.011956888 -0.018083684 -0.010777189 -0.014709413
0.048446637 0.014828382 -0.039245773 -0.0105500445 0.024530146 -0.025959967 -0.049344096 -0.022169864
0.011541511 -0.009070722 -0.01487643 0.034116644 0.0009537391 0.031988654 -0.008768398 0.015076726
0.0038707668 0.030196827 -0.02263414 0.019024247 0.04851696 0.038661297 0.010444662 -0.007384492
0.03634157 -0.026123868 0.0067846742 0.030401701 0.015552005 0.023499515 0.024650523 0.027145052
-0.004980002 -0.023325033 0.014435386 0.036885165 0.0063257427 0.02107893 0.0009850523 -0.012601265
0.029777132 -0.039436013 0.029415525 -0.03872899 -0.021522203 -0.012693806 -0.0007194497 -0.028908046
0.048374806 0.020941745 -0.016902685 0.00061473635 0.0076478664 0.0031143152 -0.024731806 -0.03436249
-0.05029257 0.015418401 0.022584701 -0.031509258 0.012753771 0.014574688 -0.004579743 0.027276041
0.050481137 0.0023079785 0.007959678 -0.03766897 -0.0025479042 0.055759426 0.024704166 0.06418884
0.06815619 0.021238785 -0.028254395 0.0071834153 0.0034842808 0.0034129836 0.0039387955 -0.045016948
-0.03175402 -0.03414723 0.009185748 -0.049977552 -0.014865261 0.02922533 -0.035254274 0.026285835
0.06287236 0.05135108 0.024952557 0.060023114 0.019287715 0.0147309285 0.023776276 0.0026261562
00000000: 0019 5ebc dbcd 06bd 3432 003b e06f 04bd
00000010: dbb0 55bc c8f8 2ebd 8bb6 4a3c 125f 383c
00000020: ad73 0ebc c4f4 19bd 057e c9bc 7a30 423b
00000030: 0a72 c13b edac debb f59b 9e3c 42d9 1d3d
00000040: ae7e fa3c 9608 b0ba dc43 11bd 3400 cb3c
00000050: 1528 9c3c 77fd 1cbb 1d18 9a3c 4771 dcbc
00000060: 620e 343d c804 473d 2ad8 323c a8f0 f2bb
00000070: a47e 42bc 7f40 903c fc4b e5bb 1d4a 17bc
00000080: 330b 083d a160 8c3d 13e2 1a3d 1247 763d
00000090: 4f39 043d 0e0e ffbc 2b38 5ebd e47f 0cbc
000000a0: 418a 58bc 897f 073c 3bc5 0e3d 162e 31bd
000000b0: 009a 0cbb 6593 833c 51d6 02bd 2f5d f7bc
000000c0: 3289 123d 1574 1fbd e41a 72ba 9909 c3bc
000000d0: 2b48 1bbd 9e95 d83c daa7 38bc 9ddd ceba
000000e0: 81a1 11bd ce0e 2cbd 7579 d23c fd5e 983b
000000f0: 4a2c 843c 3ec9 bd3c 2bde f03b 7576 6e3d
00000100: d38b fc3c d7d4 16bd e473 a53b 3aa0 133d
00000110: 02a2 25bd b836 eb3c ae49 6d3d 6a41 2dbd
00000120: f014 853d 9504 683d d21f 1c3d 858a debb
00000130: f5f7 0a3c 1bdd a93c 48c9 033d eaa4 5a3c
00000140: 8322 f5bc 98b5 1dbc f0b1 e5bc 3989 3abc
00000150: 08e2 ccba f50e 9cbb 187c 82bc 4c6b a23b
00000160: e8c8 2d3d 20d8 773d 63a7 143d 5602 de3c
00000170: 114c a5bc 877e dabc 59de 3dbc 4933 ca3c
00000180: f67f 24bd 6487 03bd 6124 90bc a051 8e3b
00000190: 7efd 95bc 1ffd 583b 6d6c e53c 5b6d 893b
000001a0: 9ae4 b43c 276e dc3c a40b 8fbc f78c 84bc
000001b0: 32c7 00bd d25f 03bd 31dc 093a e358 17bd
000001c0: 88ee 4d3b 68bb 9fb7 a79e 27bd 5fd2 54bd
000001d0: 0aeb 853c 2d8f 993c 3d01 5e3b 5d9b 0abd
000001e0: 7adf f63c 4e70 113d e23a 1ebd 9cbe 8f3c
000001f0: 6a89 39bd 4a1d cb3c 13ca 413b 6dd6 e0bc
00000200: 77e9 d63a 0405 03bd 1c65 513c 8c97 173d
00000210: f67c bebc afb2 813c 0ec8 47bc 1231 553c
00000220: 017d 363d b68b a83c 3227 923c 53c2 8e3c
00000230: baf0 85bd c362 7a3d 0a10 2e3d 72ec 07bd
00000240: 34d7 c63b c788 163d 78b6 90bb b3d8 88bc
00000250: c319 f73c ffaf 283b 057c 4dbb 3d2d 273d
00000260: a67f 563c fb20 31bc a59a d4bc 52aa bcbc
00000270: d3e6 433c 3c24 94bc cf92 30bc c0ff 70bc
00000280: fb6f 463d bef2 723c 2dc0 20bd 18da 2cbc
00000290: 72f3 c83c ffa9 d4bc 091d 4abd 939d b5bc
000002a0: 9b18 3d3c 5e9d 14bc 45bc 73bc e5bd 0b3d
000002b0: 5904 7a3a 8906 033d 54a9 0fbc 5f04 773c
000002c0: b1ac 7d3b 565f f73c 3b6b b9bc bdd8 9b3c
000002d0: b8b9 463d 4f5b 1e3d 1620 2b3c 9cf9 f1bb
000002e0: e6da 143d b901 d6bc f951 de3b fd0c f93c
000002f0: d6cd 7e3c 0e82 c03c e5ef c93c 4d5f de3c
00000300: 492f a3bb 2414 bfbc 6682 6c3c e614 173d
00000310: 2d48 cf3b b8ad ac3c df1c 813a 8975 4ebc
00000320: 2cef f33c a887 21bd d4f8 f03c 4aa2 1ebd
00000330: 554f b0bc aef9 4fbc 7499 3cba 91d0 ecbc
00000340: a924 463d 068e ab3c 8077 8abc 4226 213a
00000350: f49a fa3b 8a19 4c3b 5b9a cabc afbf 0cbd
00000360: 95ff 4dbd 769d 7c3c 8d03 b93c da0f 01bd
00000370: 31f5 503c acca 6e3c ab11 96bb 0172 df3c
00000380: 4fc5 4e3d 7441 173b 4f69 023c c74a 1abd
00000390: bdfa 26bb ff63 643d 6460 ca3c 7075 833d
000003a0: 7995 8b3d f6fc ad3c c375 e7bc db62 eb3b
000003b0: 8858 643b 5dac 5f3b 0311 813b b163 38bd
000003c0: 8110 02bd f7dd 0bbd d27f 163c 43b5 4cbd
000003d0: 6c8d 73bc f669 ef3c c966 10bd 6455 d73c
000003e0: 39c3 803d 8355 523d 4e69 cc3c ccda 753d
000003f0: 4501 9e3c fe59 713c 77c6 c23c 971b 2c3b

bias f4 [40]
0.020154282 0.0048641353 0.03082085 -0.028050995 -0.006551022 0.047924932 -0.007509634 -0.03494823
0.04166336 0.029693957 -0.034039896 -0.036427952 0.011553709 0.046635993 0.029543856 0.0010612994
-0.035801675 0.023749406 0.025005896 -0.02860145 -0.027670776 -0.017334703 0.036559515 -0.023940036
-0.005869832 0.0725318 -0.03213211 0.0357313 -0.008894503 -0.015941953 -0.008811597 0.020531952
-0.018740686 0.023767276 -0.020078128 0.0005322024 0.0225533 0.060170844 0.0016840666 0.015784781
00000000: 981a a53c 5363 9f3b 027c fc3c 33cb e5bc
00000010: f5a9 d6bb ef4c 443d 6013 f6bb e025 0fbd
00000020: 33a7 2a3d be40 f33c 6b6d 0bbd 7a35 15bd
00000030: c54b 3d3c 6205 3f3d f505 f23c 4c1b 8b3a
00000040: c7a4 12bd 1d8e c23c 2ad9 cc3c 974d eabc
00000050: d3ad e2bc 8201 8ebc 6ebf 153d e51d c4bc
00000060: b857 c0bb 8d8b 943d f69c 03bd fc5a 123d
00000070: 40ba 11bc b398 82bc 845e 10bc a032 a83c
00000080: 1186 99bc 97b3 c23c e37a a4bc 8083 0b3a
00000090: b3c1 b83c b475 763d e6bb dc3a 164f 813c

weight f4 [20, 40, 4, 4]
-0.031924814 -0.0042095133 -0.04324593 0.021783287 -0.01758865 0.009364855 -0.02038656 -0.021769373
-0.019815672 -0.029779112 0.024694525 0.022831682 0.013315019 0.0060157683 -0.00434161 0.026985118
-0.028142376 0.031991795 -0.024275871 0.013767483 -0.039137457 0.018091412 0.013285674 0.02481047
-0.038508203 0.041670155 0.028882293 -0.02383528 -0.020386407 -0.016411606 0.000834789 0.028518647
0.022634119 -0.02244461 -0.02730428 -0.027995266 0.020152535 -0.01653399 -0.036240466 -0.01281538
0.007760287 0.01778695 0.0072506904 -0.03877413 -0.0125894835 0.030762907 0.007491386 -0.024073217
-0.03142093 0.019375157 -0.017786834 0.02957715 0.029099455 -0.040436503 0.008484813 -0.02209117
-0.0042931517 -0.032205015 -0.014889127 -0.0023767925 0.02708855 -0.04540168 0.02495764 0.032858882
-0.01285552 -0.0422396 -0.030115267 -0.0096809575 -0.005559441 0.0405118 0.02170806 -0.023873826
-0.00051423535 -0.043583475 -0.022867158 -0.031993587 -0.02919001 0.022991199 0.0033077314 0.040073365
0.029649932 -0.008726207 -0.0032738931 0.01087606 0.032062948 -0.041673232 -0.036043167 -0.016879223
0.0028612427 -0.033855602 -0.027244922 -0.019346558 -0.028817168 -0.033378545 0.013269751 -0.014820729
0.041563306 0.017694743 -0.029680675 0.017462667 -0.013179949 -0.01352142 0.0027913565 -0.026113104
0.02269573 0.031638227 -0.026959915 0.038078908 0.043264776 0.04147518 -0.00868688 -0.02437849
0.020724088 -0.035656944 -0.04225444 0.001999744 -0.006946188 0.0052378457 -0.033195708 -0.016824054
0.019326402 -0.041253217 -0.04423176 0.04286036 0.0029306887 0.009822117 0.019825174 0.029686114
-0.031568725 -0.016655045 -0.03521675 -0.0039728605 0.009953218 0.032721434 0.028908154 -0.0010526816
-0.021611203 0.026827082 0.03225732 0.0058584274 -0.007684498 0.030514274 0.020492727 0.0144485645
-0.0020869544 0.033264417 -0.0048859613 0.031014888 0.013812503 -0.019083176 -0.045360863 -0.0096301045
-0.039261423 0.013304953 -0.030726371 0.028265314 -0.010556067 -0.03176799 -0.044972323 0.022785034
-0.0058412175 -0.022774454 -0.032796897 -0.032587104 0.012015031 0.020724004 0.0125141805 0.013088245
0.039436202 -0.037918717 -0.00120352 -0.016802965 -0.032567978 0.0024952355 -0.041402616 0.011071503
-0.0096580265 -0.01923143 -0.018706825 -0.017270582 -0.015732948 0.0008933709 -0.007642159 -0.020680336
-0.027264317 -0.033312246 -0.03681036 -0.024285765 0.011803375 0.012947411 -0.016296629 0.031078327
-0.019788023 -0.0022119381 0.008662369 0.031244531 0.0030267772 0.0130387 -0.04191866 -0.017194493
-0.013051673 -0.038846355 0.030975586 -0.043088004 -0.021387488 -0.023116551 -0.037944485 -0.04170893
-0.0032524047 -0.039013952 -0.044315398 -0.01284329 -0.04005614 -0.01419937 0.018376095 -0.012865367
0.012092085 -0.008361825 0.017540852 0.00791521 0.021268237 -0.03433227 -0.026917486 -0.046486255
-0.003020733 -0.010386804 0.002905896 -0.007385911 -0.013758536 0.01818884 -0.020286601 -0.020319523
-0.006406494 -0.01346824 -0.0035708789 -0.023422852 0.005078282 0.031427894 0.029751457 0.009621006
0.0007462805 -0.0041291523 0.033061855 -0.013943392 -0.025168998 0.0327467 0.028065901 -0.033688974
0.0017831291 -0.010139372 -0.00887144 -0.0014762196 -0.032503314 -0.035550527 0.030646263 -0.02285792
00000000: 98c3 02bd f5ef 89bb a522 31bd dd72 b23c
00000010: 1316 90bc 0c6f 193c b701 a7bc af55 b2bc
00000020: 7a54 a2bc 53f3 f3bc 2c4c ca3c 8209 bb3c
00000030: 3d27 5a3c ec1f c53b 1044 8ebb e50f dd3c
00000040: d78a e6bc d409 033d 31de c6bc 0291 613c
00000050: 994e 20bd 7134 943c 28ac 593c 543f cb3c
00000060: c7ba 1dbd 53ae 2a3d 8f9a ec3c 3542 c3bc
00000070: 6501 a7bc a271 86bc bed5 5a3a f09f e93c
00000080: 306b b93c c2dd b7bc 3aad dfbc 5456 e5bc
00000090: ee16 a53c 4a72 87bc e270 14bd 99f7 51bc
000000a0: 014a fe3b f0b5 913c 3397 ed3b 9fd1 1ebd
000000b0: 1f44 4ebc 7e02 fc3c 4d7a f53b 3235 c5bc
000000c0: 3cb3 00bd a6b8 9e3c b2b5 91bc c74b f23c
000000d0: fb61 ee3c bfa0 25bd e303 0b3c 8bf8 b4bc
000000e0: 91ad 8cbb 68e9 03bd 86f1 73bc f6c3 1bbb
000000f0: cfe8 dd3c 1df7 39bd f773 cc3c 0997 063d
00000100: f59f 52bc 6e03 2dbd 4bb4 f6bc e19c 1ebc
00000110: f92b b6bb b4ef 253d 1ad5 b13c 0b93 c3bc
00000120: c0cd 06ba 9684 32bd e853 bbbc b50b 03bd
00000130: e31f efbc 0a58 bc3c 86c6 583b f823 243d
00000140: 6ae4 f23c 5df8 0ebc d08e 56bb 8131 323c
00000150: 7054 033d 8db1 2abd 00a2 13bd 4c46 8abc
00000160: b083 3b3b 2cac 0abd be30 dfbc ac7c 9ebc
00000170: fb11 ecbc f1b7 08bd 5f69 593c a5d2 72bc
00000180: 493e 2a3d 91f4 903c e324 f3bc de0d 8f3c
00000190: b6f0 57bc f288 5dbc 31ef 363b 26eb d5bc
000001a0: 65ec b93c 1697 013d 0adb dcbc a1f8 1b3d
000001b0: 6836 313d e1e1 293d 6a53 0ebc 66b5 c7bc
000001c0: 90c5 a93c 040d 12bd fe12 2dbd 230e 033b
000001d0: d99c e3bb 3ca2 ab3b 39f8 07bd 99d2 89bc
000001e0: 6752 9e3c 22f9 28bd 5d2c 35bd 588e 2f3d
000001f0: cc10 403b f2ec 203c 6768 a23c 4b30 f33c
00000200: 354e 01bd 2970 88bc 703f 10bd c52e 82bb
00000210: d212 233c e906 063d cbd0 ec3c 22fa 89ba
00000220: fa09 b1bc 78c4 db3c 4020 043d 0df8 bf3b
00000230: 3ece fbbb 12f9 f93c 5de0 a73c acb9 6c3c
00000240: 49c5 08bb 4540 083d 6a1a a0bb ef12 fe3c
00000250: d64d 623c 5254 9cbc 50cc 39bd 96c7 1dbc
00000260: 96d0 20bd 05fd 593c dfb5 fbbc a98c e73c
00000270: 5bf3 2cbc 271f 02bd e634 38bd aea7 ba3c
00000280: af67 bfbb 7e91 babc 0a56 06bd 0e7a 05bd
00000290: b1da 443c 63c5 a93c 4708 4d3c 1470 563c
000002a0: db87 213d a850 1bbd 6ebf 9dba 5fa6 89bc
000002b0: 0066 05bd 1b87 233b ca95 29bd 4065 353c
000002c0: b33c 1ebc 3b8b 9dbc 0e3f 99bc 097b 8dbc
000002d0: 62e2 80bc 1b31 6a3a 136b fabb cf69 a9bc
000002e0: 6b59 dfbc 6c72 08bd 76c6 16bd f1f2 c6bc
000002f0: f162 413c 6121 543c 8280 85bc fa97 fe3c
00000300: 7e1a a2bc 2af6 10bb 9cec 0d3c 88f4 ff3c
00000310: e55c 463b 46a0 553c e7b2 2bbd 77db 8cbc
00000320: afd6 55bc 5b1d 1fbd 83c0 fd3c 0c7d 30bd
00000330: d034 afbc ec5e bdbc ad6b 1bbd fcd6 2abd
00000340: 4c26 55bb 18cd 1fbd 1084 35bd aa6c 52bc
00000350: e811 24bd 79a4 68bc 7789 963c 43c9 52bc
00000360: e11d 463c 0900 09bc d5b1 8f3c ccae 013c
00000370: ba3a ae3c ff9f 0cbd 0f82 dcbc 5f68 3ebd
00000380: 7df7 45bb 6a2d 2abc d870 3e3b 8305 f2bb
00000390: 7c6b 61bc c300 953c 1630 a6bc 2175 a6bc
000003a0: 91ed d1bb e5a9 5cbc 6805 6abb 48e1 bfbc
000003b0: b867 a63b 89ba 003d 54b9 f33c 6da1 1d3c
000003c0: 09a2 433a d74d 87bb de6b 073d d372 64bc
000003d0: 372f cebc 6721 063d 76ea e53c 73fd 09bd
000003e0: e2b7 e93a 9c1f 26bc 8459 11bc b67d c1ba
000003f0: 3222 05bd 6e9d 11bd df0d fb3c 8840 bbbc

bias f4 [20]
-0.022948306 0.009225322 -0.012788915 -0.019241495 0.015889928 0.018729094 -0.0145657705 -0.015906192
0.0017294845 0.024112064 0.032799434 -0.044425983 -0.02332951 0.03902131 -0.018534586 0.03464305
0.010941861 -0.01272034 0.022256948 0.0316938
00000000: 16fe bbbc ce25 173c 9988 51bc 57a0 9dbc
00000010: 982b 823c c26d 993c 45a5 6ebc b44d 82bc
00000020: dfaf e23a aa86 c53c b358 063d 05f8 35bd
00000030: 871d bfbc cfd4 1f3d d8d5 97bc dfe5 0d3d
00000040: 7e45 333c f968 50bc 3454 b63c 5cd1 013d

weight f4 [10, 20, 4, 4]
0.05137398 -0.03339876 -0.0010217133 0.039052438 0.04173483 -0.047769364 -0.041691925 0.00935185
0.049338702 0.0428217 -0.041803382 -0.002929523 -0.0074180057 -0.017351016 0.011607159 -0.05950724
-0.010454458 -0.0045617814 0.0322765 -0.0109657785 -0.051063966 -0.06025467 -0.014999686 -0.046299092
-0.04669021 0.016842928 0.0033643562 -0.025107956 0.016398363 -0.02729792 0.036924575 0.015316569
0.039397527 0.016883243 -0.0031465068 0.024046818 0.03745263 -0.056618243 -0.005697659 -0.0056892135
-0.0048953313 0.021800224 -0.01543581 -0.008388328 -0.0034255877 -0.02318732 -0.019280883 0.042192023
0.03954251 0.017255558 -0.0558047 -0.04222693 -0.030215103 -0.009325711 0.034588527 0.045619912
0.03742499 0.008296153 -0.054658614 -0.024386244 -0.031659175 -0.051667817 -0.053231418 -0.04574096
-0.04865297 -0.045197785 -0.039366055 0.009745791 -0.037397794 0.022331515 -0.016502183 -0.011886789
-0.046679 0.042083137 -0.038360808 -0.04052298 0.03100044 -0.03869325 0.0048589925 -0.021371448
0.0013593738 -0.003613664 0.035317875 -0.037528176 0.028416565 -0.044907447 -0.044730484 -0.04429738
0.011477346 -0.04627568 0.029807147 0.0042964704 -0.0055139507 0.002552058 0.024639407 -0.044725128
-0.019954307 -0.013615382 0.038406722 -0.01641288 -0.029033685 -0.038886953 0.014955727 -0.010345434
0.034141812 0.015499919 0.0066866386 -0.0005645593 0.022228887 0.021945255 -0.048442043 0.026143532
0.0050082044 -0.01576591 -0.012324011 -0.047009267 -0.021349445 0.0016675828 0.032459 -0.045031153
0.026804764 -0.021412631 0.024484716 0.012941685 0.0057598245 -0.004244117 -0.066321485 -0.019099351
0.03661918 0.010265331 0.024705434 -0.035197653 0.052883588 -0.023669016 0.019694498 -0.008567207
-0.027868971 -0.009608824 0.01858642 -0.0008292489 0.0050473073 -0.015924007 0.001118008 0.0028924048
-0.023429226 -0.05111017 -0.05894439 0.044759654 -0.030699069 0.042119246 -0.06093713 -0.032180887
-0.041947633 -0.056153197 -0.040108804 -0.023579821 0.020146457 0.04875911 0.05756661 -0.012517513
0.031203043 0.040663317 0.011778811 -0.012910727 -0.020279692 -0.046799015 -0.013889374 0.029280324
0.0003393885 0.013622531 0.035688754 0.0116716735 0.0067062485 -0.032280836 -0.002003262 -0.019163242
0.04960845 0.03527695 -0.005940431 0.036197446 0.011163405 -0.0035645007 -0.055375025 -0.032517698
0.0107333595 0.04093006 -0.053899806 0.0058219843 -0.02165083 -0.033272568 -0.002109295 0.030781075
0.023529813 0.025883418 0.022985645 -0.017996034 0.01639807 0.0043178108 0.023891779 0.04986279
-0.056104265 0.026736602 -0.009068488 -0.040377945 0.0112582315 -0.008416111 0.00409154 -0.035366572
-0.010809681 -0.0075175627 -0.058086365 -0.0071383896 -0.021765785 -0.055740047 -0.031493355 0.0011818184
0.006035407 -0.03355044 -0.042079438 -0.05439926 0.039265003 -0.042390537 0.038884394 -0.048496995
-0.04419431 -0.020643255 -0.05613505 -0.02665927 -0.043867197 -0.045432806 -0.04390224 -0.045381855
0.0044540735 0.048860133 0.036044013 -0.058865286 -0.039762355 0.00224879 -0.037782434 0.015597044
-0.02487612 -0.05026973 -0.037042387 0.03678785 -0.041461237 -0.052614514 0.033956222 0.043292172
-0.032401793 -0.026396755 -0.003470589 -0.04902874 -0.026807927 0.024310289 -0.030199181 0.03269581
00000000: 866d 523d 23cd 08bd 02eb 85ba 73f5 1f3d
00000010: 24f2 2a3d cfa9 43bd 27c5 2abd 8038 193c
00000020: 6117 4a3d cf65 2f3d 063a 2bbd 3dfd 3fbb
00000030: be12 f3bb b823 8ebc f42b 3e3c ddbd 73bd
00000040: 2d49 2bbc ff7a 95bb 5d34 043d cfa9 33bc
00000050: 7328 51bd 9acd 76bd 3ec1 75bc 1ea4 3dbd
00000060: 3c3e 3fbd 2efa 893c 887c 5c3b 33af cdbc
00000070: dc55 863c e39f dfbc 393e 173d 59f2 7a3c
00000080: 4d5f 213d ba4e 8a3c a035 4ebb d5fd c43c
00000090: ee67 193d 88e8 67bd 6eb3 babb 956c babb
000000a0: 0469 a0bb 6296 b23c 7be6 7cbc 336f 09bc
000000b0: d37f 60bb 56f3 bdbc f1f2 9dbc 8bd1 2c3d
000000c0: 54f7 213d 875b 8d3c 7893 64bd 25f6 2cbd
000000d0: aa85 f7bc deca 18bc b3ac 0d3d f2db 3a3d
000000e0: f24a 193d 96ec 073c b6e1 5fbd a9c5 c7bc
000000f0: 0dad 01bd a2a1 53bd 3009 5abd df5a 3bbd
00000100: 5648 47bd 5021 39bd 4d3e 21bd cfac 1f3c
00000110: 6e2e 19bd 95f0 b63c 962f 87bc cfc0 42bc
00000120: 7b32 3fbd 5e5f 2c3d 3920 1dbd 6dfb 25bd
00000130: a2f4 fd3c d07c 1ebd 2f38 9f3b 2d13 afbc
00000140: 042d b23a 39d3 6cbb 7aa9 103d 25b7 19bd
00000150: dbc9 e83c dff0 37bd 5037 37bd 2b71 35bd
00000160: 7a0b 3c3c 918b 3dbd 1e2e f43c 68c9 8c3b
00000170: 5fae b4bb 6e40 273b 95d8 c93c b231 37bd
00000180: 3777 a3bc 0d13 5fbc 5e50 1d3d 4e74 86bc
00000190: 0dd8 edbc ed47 1fbd de08 753c e57f 29bc
000001a0: 49d8 0b3d 5ff3 7d3c 971b db3b effe 13ba
000001b0: 5b19 b63c 89c6 b33c 2a6b 46bd f62a d63c
000001c0: dd1b a43b 8227 81bc a6ea 49bc ca8c 40bd
000001d0: 08e5 aebc cb92 da3a baf3 043d 9672 38bd
000001e0: aa95 db3c 8b69 afbc 2c94 c83c 5c09 543c
000001f0: e9bc bc3b 3c12 8bbb 8fd3 87bd 3e76 9cbc
00000200: fefd 153d eb2f 283c 0d63 ca3c 6a2b 10bd
00000210: 769c 583d 86e5 c1bc 5b56 a13c 785d 0cbc
00000220: 784d e4bc 546e 1dbc 8c42 983c f461 59ba
00000230: e263 a53b 1073 82bc 208a 923a 808e 3d3b
00000240: a6ee bfbc e658 51bd ac6f 71bd e655 373d
00000250: 9d7c fbbc 3b85 2c3d 3699 79bd 1bd0 03bd
00000260: 48d1 2bbd e500 66bd 2149 24bd 782a c1bc
00000270: 2f0a a53c a2b7 473d f7ca 6b3d 4116 4dbc
00000280: 869d ff3c 948e 263d eafb 403c 8487 53bc
00000290: 9921 a6bc 53b0 3fbd 4290 63bc 4add ef3c
000002a0: f4ef b139 0931 5f3c 5f2e 123d 8c3a 3f3c
000002b0: 17c0 db3b e938 04bd 2949 03bb 3bfc 9cbc
000002c0: 3b32 4b3d 907e 103d f2a7 c2bb c643 143d
000002d0: b7e6 363c 669a 69bb ecd0 62bd 4731 05bd
000002e0: f9da 2f3c 47a6 273d 0bc6 5cbd 58c6 be3b
000002f0: 155d b1bc d148 08bd 193c 0abb 9828 fc3c
00000300: 98c1 c03c 7609 d43c 644c bc3c 6b6c 93bc
00000310: 3f55 863c 6c7c 8d3b b1b8 c33c ed3c 4c3d
00000320: 96cd 65bd b806 db3c ff93 14bc 5863 25bd
00000330: 7274 383c bae3 09bc 5312 863b 8adc 10bd
00000340: 171b 31bc e355 f6bb f8eb 6dbd 27e9 e9bb
00000350: 294e b2bc ad4f 64bd 2dff 00bd 3fe7 9a3a
00000360: aac4 c53b 306c 09bd 7d5b 2cbd c2d1 5ebd
00000370: 57d4 203d b3a1 2dbd 3e45 1f3d c9a4 46bd
00000380: 1805 35bd 0b1c a9bc deed 65bd 8b64 dabc
00000390: 17ae 33bd c017 3abd d6d2 33bd 53e2 39bd
000003a0: 7af3 913b 9021 483d e3a2 133d ba1c 71bd
000003b0: dadd 22bd 7060 133b c1c1 1abd be8a 7f3c
000003c0: 01c9 cbbc a2e7 4dbd c2b9 17bd dbae 163d
000003d0: 42d3 29bd 5182 57bd ae15 0b3d 2253 313d
000003e0: beb7 04bd 023e d8bc d272 63bb 5cd2 48bd
000003f0: 4c9c dbbc 5f26 c73c 4664 f7bc 0bec 053d

bias f4 [10]
0.012677204 0.026668657 0.020445857 -0.018695185 0.043867156 0.032201685 0.04468012 0.05839822
-0.029288096 -0.011136767
00000000: 0cb4 4f3c 3a78 da3c 127e a73c a526 99bc
00000010: 0cae 333d eae5 033d 8002 373d f932 6f3d
00000020: 97ed efbc fd76 36bc

weight f4 [5, 10, 4, 4]
0.027491672 -0.04814138 -0.028921865 0.010067213 0.0389318 -0.06444648 -0.0007339314 -0.04103258
0.052640505 -0.032430794 0.06203893 -0.046064872 -0.07150024 -0.029670497 -0.0661872 0.022627017
-0.10498513 0.064688854 -0.06664061 -0.06741844 0.013620112 -0.040851917 -0.001555195 -0.034845676
0.0045099957 0.03626224 0.0039897664 0.0038728416 -0.02894703 -0.033676803 -0.07195944 -0.04549183
-0.06546408 0.027426118 -0.032716382 -0.008790412 -0.017282482 0.086095504 0.04118182 -0.05333367
0.07608876 0.00796724 -0.0033238232 -0.014430593 -0.043504234 0.001814955 -0.03147275 -0.06586908
-0.064428866 -0.012201632 0.023926783 0.029564206 0.08440936 0.058001563 0.07455788 0.07287355
0.03433057 0.018305195 0.011528133 -0.056352325 0.028040618 -0.01701775 0.019294215 -0.01632643
0.014739774 0.063556485 0.033100735 -0.11664031 0.048136804 0.06067266 -0.040399533 -0.082150824
-0.012340523 0.005335229 0.05811444 -0.032335915 0.03307586 0.020642268 -0.025786897 -0.034161657
0.052731864 -0.03975927 0.08028802 -0.041520156 -0.063178055 0.059781212 -0.040050432 0.01847622
-0.01659022 0.062298916 -0.009313982 -0.0690112 -0.0006387606 -0.008475989 0.037055388 0.01869013
0.026454058 -0.018820891 0.05331359 0.051839843 0.07684032 -0.06423985 -0.015233994 -0.032865718
-0.021280792 0.05339613 0.0038236098 -0.026794426 0.15879816 0.008889719 -0.020379743 0.032809496
-0.019604858 -0.031198522 -0.053162504 -0.1309189 -0.0099657 -0.06669935 -0.028556447 -0.07864778
0.0959157 0.009294982 0.02385365 0.07468539 0.083339095 0.024068339 0.020442365 0.06573497
-0.073805206 -0.047536742 -0.034303103 0.049366686 -0.015474658 -0.02728011 0.032652527 0.034788527
-0.045529626 -0.018617274 0.039195806 -0.07559383 0.06171786 0.019743476 -0.016810114 0.0043740966
0.056428693 0.028644845 0.0027478195 0.0017072704 0.076571725 0.01968611 0.008237842 -0.05956011
-0.060677383 0.027769336 0.037734672 0.069125004 0.07976824 -0.008166406 -0.023066806 -0.0053239167
0.029416269 0.054989833 -0.061223745 0.04749924 -0.033244964 -0.06829234 -0.046962123 0.023205047
0.024334785 -0.027505346 -0.05242984 0.02178046 -0.016487677 0.048825767 0.040995795 0.07142395
-0.0355523 -0.07029378 0.006253607 -0.080425315 0.058662668 -0.095591985 -0.08369191 0.055835422
-0.02804428 0.022929225 -0.08628167 -0.040738985 0.039134517 0.044777375 -0.06059587 0.044699296
0.022129703 -0.028667046 0.040233754 -0.00031041424 0.023059098 0.071991585 -0.0063852714 0.0703818
0.0125237405 -0.061106257 -0.023220291 0.023086958 0.006774668 -0.0083662355 -0.0244976 -0.052705336
-0.0411725 -0.030150486 0.061726667 -0.015705723 0.0089144865 -0.066536814 -0.04470279 -0.0601473
-0.046520546 0.029289 0.00426311 0.0024931899 0.043355566 -0.02028271 -0.018724596 -0.06138129
0.05024008 0.015283579 0.0054545556 0.045108598 -0.056704897 -0.071394004 -0.067783915 0.060163774
-0.011239215 0.0052067186 -0.011555874 0.04764219 0.067340285 -0.042360656 -0.012289911 0.029675191
0.03475968 -0.02453464 0.033741236 0.07643786 0.022341209 0.071061715 0.06423109 0.007399536
-0.05335453 0.07464291 -0.056446057 0.021940054 0.012415346 0.013653801 0.049747847 -0.04053413
00000000: 3736 e13c e52f 45bd 8ced ecbc f4f0 243c
00000010: f376 1f3d 84fc 83bd 4d65 40ba c711 28bd
00000020: 929d 573d 27d6 04bd 881c 7e3d 85ae 3cbd
00000030: b86e 92bd 8b0f f3bc 288d 87bd 4b5c b93c
00000040: 7202 d7bd 977b 843d df7a 88bd ae12 8abd
00000050: e426 5f3c 5754 27bd afd7 cbba 57ba 0ebd
00000060: 96c8 933b b787 143d 96bc 823b 80cf 7d3b
00000070: 5222 edbc b0f0 09bd 795f 93bd a455 3abd
00000080: 0812 86bd bdac e03c 9d01 06bd a905 10bc
00000090: fe93 8dbc d752 b03d 45ae 283d 6874 5abd
000000a0: 6cd4 9b3d 0789 023c 80d4 59bb 4b6e 6cbc
000000b0: 7f31 32bd c9e3 ed3a 92e9 00bd 5ee6 86bd
000000c0: 48f3 83bd 5be9 47bc 1a02 c43c a230 f23c
000000d0: d1de ac3d 0c93 6d3d cdb1 983d ba3e 953d
000000e0: 369e 0c3d c7f4 953c 7fe0 3c3c b2d1 66bd
000000f0: 70b5 e53c cf68 8bbc e70e 9e3c 01bf 85bc
00000100: 187f 713c e729 823d a394 073d 1de1 eebd
00000110: 192b 453d e583 783d fb79 25bd b13e a8bd
00000120: e82f 4abc 25d3 ae3b 6809 6e3d aa72 04bd
00000130: 8e7a 073d f919 a93c 0b3f d3bc 18ed 0bbd
00000140: 5efd 573d 9eda 22bd 0c6e a43d 0a11 2abd
00000150: 7f63 81bd 25dd 743d ec0b 24bd 715b 973c
00000160: 37e8 87bc 262d 7f3d ac99 18bc be55 8dbd
00000170: 8072 27ba e0de 0abc 64c7 173d 0b1c 993c
00000180: 2eb6 d83c 452e 9abc 5a5f 5a3d 0456 543d
00000190: 755e 9d3d 2f90 83bd 0198 79bc 349e 06bd
000001a0: 0e55 aebc e7b5 5a3d 8795 7a3b fc7f dbbc
000001b0: fc9b 223e 2fa6 113c 6bf3 a6bc 4063 063d
000001c0: 5e9a a0bc 0b94 ffbc edc0 59bd 9b0f 06be
000001d0: 2d47 23bc ab99 88bd 36ef e9bc 1612 a1bd
000001e0: 736f c43d fb49 183c bb68 c33c a7f4 983d
000001f0: b0ad aa3d f72a c53c bf76 a73c 0ea0 863d
00000200: 2f27 97bd e3b5 42bd 6981 0cbd b934 4a3d
00000210: 6c89 7dbc 8a7a dfbc a8be 053d 6a7e 0e3d
00000220: 467d 3abd 4183 98bc c88b 203d f0d0 9abd
00000230: decb 7c3d 12bd a13c 5db5 89bc 9554 8f3b
00000240: c621 673d 98a8 ea3c c314 343b 7dc6 df3a
00000250: a3d1 9c3d c444 a13c 03f8 063c 4df5 73bd
00000260: d988 78bd 857c e33c ac8f 1a3d 6991 8d3d
00000270: 885d a33d 64cc 05bc 99f6 bcbc 4074 aebb
00000280: 63fa f03c 053d 613d c0c5 7abd 908e 423d
00000290: df2b 08bd dbdc 8bbd 5b5b 40bd 8318 be3c
000002a0: be59 c73c e452 e1bc acc0 56bd ef6c b23c
000002b0: 2a11 87bc 87fd 473d 35eb 273d b846 923d
000002c0: 4a9f 11bd 2ff6 8fbd 0feb cc3b 07b6 a4bd
000002d0: 4448 703d bbc5 c3bd aa66 abbd afb3 643d
000002e0: 1ebd e5bc 12d6 bb3c 72b4 b0bd ecdd 26bd
000002f0: 844b 203d 7b68 373d 6033 78bd 9c16 373d
00000300: 5a49 b53c 27d7 eabc 26cc 243d 18bf a2b9
00000310: 6fe6 bc3c 5370 933d 8a3b d1bb 5524 903d
00000320: 6030 4d3c 8e4a 7abd 7b38 bebc dc20 bd3c
00000330: 09fe dd3b 8912 09bc 31af c8bc 8de1 57bd
00000340: 7fa4 28bd 27fe f6bc 1ad5 7c3d 4aa9 80bc
00000350: 110e 123c 7444 88bd 461a 37bd 045d 76bd
00000360: 548c 3ebd 7cef ef3c 8fb1 8b3b c964 233b
00000370: 9b95 313d ed27 a6bc 5364 99bc f36a 7bbd
00000380: 8bc8 4d3d fa67 7a3c 21bc b23b cbc3 383d
00000390: 6543 68bd 0537 92bd 4bd2 8abd 4a6e 763d
000003a0: af24 38bc 1f9d aa3b d954 3dbc 7524 433d
000003b0: b4e9 893d 5e82 2dbd 9f5b 49bc 6319 f33c
000003c0: 2b60 0e3d dffc c8bc 4034 0a3d 748b 9c3d
000003d0: e904 b73c ce88 913d 978b 833d cf77 f23b
000003e0: 488a 5abd 62de 983d fb33 67bd a1bb b33c
000003f0: bc69 4b3c 31b4 5f3c 66c4 4b3d 1e07 26bd

bias f4 [5]
-0.011960173 -0.018283937 -0.07656873 0.026797732 0.046175603
00000000: 9af4 43bc 32c8 95bc 11d0 9cbd eb86 db3c
00000010: a122 3d3d

weight f4 [1, 5, 4, 4]
0.07228466 -0.10996287 -0.08354618 -0.11750851 0.06239916 -0.02546053 -0.111111775 -0.073480085
-0.0018860064 0.08421158 -0.09277876 0.025787996 -0.032286517 0.026578458 0.074876755 0.12988484
-0.009267857 -0.10142759 0.06341603 0.06919888 -0.027631713 0.06948077 0.094540484 0.052874684
-0.004971756 0.014416058 -0.084469765 -0.08654925 0.0769724 -0.07387798 0.056852847 0.046183277
-0.10139498 0.01384915 -0.052430246 -0.049443588 -0.02631694 0.026443066 0.039975956 0.007099315
-0.14542778 -0.015968986 0.07268826 -0.064283654 -0.047299072 0.0042382637 0.088487364 -0.08620723
-0.08888267 -0.0071446523 0.07488189 -0.06418173 0.040298864 -0.07633156 -0.068667 0.07042712
0.10248377 0.11498701 0.027205287 -0.10091902 0.16861504 0.114012584 0.07600499 -0.064019114
-0.030192083 0.097540446 0.07575686 -0.024036046 0.096970044 0.07105257 0.06052108 -0.043268267
0.050798666 0.058924526 0.061901707 -0.044045497 -0.014776227 -0.0037778232 -0.013245992 -0.02389124
00000000: fb09 943d 3734 e1bd 421a abbd 4da8 f0bd
00000010: 4396 7f3d 9a92 d0bc 928e e3bd ba7c 96bd
00000020: e033 f7ba 1f77 ac3d ca02 bebd 5941 d33c
00000030: de3e 04bd 11bb d93c fc58 993d 8800 053e
00000040: 36d8 17bc 45b9 cfbd 43e0 813d 24b8 8d3d
00000050: e75b e2bc ef4b 8e3d 719e c13d 2093 583d
00000060: 1dea a2bb 5431 6c3c 7cfe acbd bc40 b1bd
00000070: b5a3 9d3d 574d 97bd 88de 683d ad2a 3d3d
00000080: 2ca8 cfbd 8ce7 623c 19c1 56bd 5c85 4abd
00000090: a096 d7bc 219f d83c d4bd 233d 5fa1 e83b
000000a0: 05eb 14be 64d1 82bc 95dd 943d 26a7 83bd
000000b0: acbc 41bd 22e1 8a3b dd38 b53d 6b8d b0bd
000000c0: 1e08 b6bd b01d eabb ad5b 993d b671 83bd
000000d0: 6c10 253d b953 9cbd 49a1 8cbd 183c 903d
000000e0: 03e3 d13d 4f7e eb3d 9fdd de3c a2ae cebd
000000f0: 6ca9 2c3e 6e7f e93d 81a8 9b3d 741c 83bd
00000100: 6355 f7bc 49c3 c73d 6a26 9b3d 3ee7 c4bc
00000110: 3b98 c63d 0384 913d f4e4 773d 113a 31bd
00000120: 4312 503d d85a 713d a58c 7d3d 0d69 34bd
00000130: fd17 72bc 5b95 77bb b805 59bc 90b7 c3bc

weight f4 [10, 10]
0.6816463 0.7398742 0.62806386 0.585028 0.8980558 0.74775183 0.56509054 0.68656236
0.9105398 0.92026424 0.6599897 0.81761706 0.72627515 0.7349841 0.976042 0.5739585
0.6577098 0.832952 0.9659466 0.9040222 0.860617 0.751674 0.6023434 0.584727
1.0607826 0.61632913 0.5459455 0.8832395 0.96647346 1.0042487 0.9106951 0.7435952
0.732474 0.67725945 1.0010365 0.66009635 0.58996886 0.92563415 0.91431147 1.011543
1.0718353 0.70969826 0.7812014 0.60993063 1.0039808 0.6399346 0.58395123 1.0446053
0.80181783 1.0810355 1.263494 0.5835594 0.8654813 0.54582053 0.96989477 0.6294101
0.70028466 1.1144295 0.7275347 0.9633782 1.4459878 0.5156022 0.8872023 0.5085812
0.8623871 0.62567806 0.7413233 1.0924019 0.75223666 0.9754176 1.2260612 0.5755414
0.85831296 0.5860874 0.7436257 0.70142835 0.94231844 1.0579832 0.6865406 0.86203015
1.1444036 0.5259541 0.9091304 0.71589 0.63559747 0.7406531 0.9732058 0.97039497
0.66977364 0.79210734 1.2471783 0.5412767 0.94197434 0.68559414 0.4993403 0.6898119
1.0950933 1.0153726 0.59149337 0.63581187
00000000: 5f80 2e3f 6568 3d3f cbc8 203f 65c4 153f
00000010: fce6 653f aa6c 3f3f c6a9 103f 8dc2 2f3f
00000020: 2319 693f 7096 6b3f 16f5 283f 5a4f 513f
00000030: 2bed 393f eb27 3c3f e3dd 793f f2ee 123f
00000040: ab5f 283f 583c 553f 4748 773f 006e 673f
00000050: 6551 5c3f b56d 403f 2d33 1a3f abb0 153f
00000060: b9c7 873f bfc7 1d3f 16c3 0b3f fc1b 623f
00000070: ce6a 773f 398b 803f 5023 693f 415c 3e3f
00000080: 6b83 3b3f e060 2d3f f721 803f 13fc 283f
00000090: 3308 173f 5cf6 6c3f 5110 6a3f 3e7a 813f
000000a0: e631 893f c9ae 353f d1fc 473f 6a24 1c3f
000000b0: 7182 803f c1d2 233f d47d 153f a0b5 853f
000000c0: ef43 4d3f 5f5f 8a3f 2cba a13f 2664 153f
000000d0: 2f90 5d3f e5ba 0b3f 064b 783f 0521 213f
000000e0: db45 333f a0a5 8e3f b73f 3a3f f49f 763f
000000f0: 2116 b93f 81fe 033f b11f 633f 6132 023f
00000100: 67c5 5c3f 702c 203f 5dc7 3d3f d3d3 8b3f
00000110: 9592 403f f8b4 793f 93ef 9c3f ae56 133f
00000120: 66ba 5b3f d309 163f 415e 3e3f cf90 333f
00000130: c83b 713f fe6b 873f 20c1 2f3f 02ae 5c3f
00000140: d17b 923f eea4 063f c5bc 683f 9144 373f
00000150: 84b6 223f 719b 3d3f 0424 793f ce6b 783f
00000160: 4976 2b3f 8cc7 4a3f 8aa3 9f3f 1c91 0a3f
00000170: 3b25 713f 1983 2f3f 88a9 ff3e 8397 303f
00000180: 042c 8c3f bbf7 813f 1c6c 173f 91c4 223f
