sample data/models/model_basic/statedictmodelWith2EpochOperaAppliedOnEachDigitBatchSize320.pth (torch, 668111 bytes, 8 tensors)

conv1.weight f4 [64, 1, 3, 3]
0	0xbe709077	-0.23492609
1	0xbd093f4d	-0.033507634
2	0xbec504ec	-0.38480318
3	0x3e842dad	0.25816098
4	0xbdfe1bec	-0.124076694
5	0xbdf1793a	-0.117907
6	0xbd643f25	-0.05572428
7	0x3e0b96e3	0.13631777
8	0x3eac2b8d	0.33626977
9	0xbd0f1155	-0.03492864
10	0xbe4d51ef	-0.20050786
11	0xb9257549	-0.00015779318
12	0x3e8157a2	0.2526217
13	0x3e935c2a	0.28781253
14	0xbe83b7b5	-0.25726095
15	0x3d8d07b6	0.06886236
16	0xbd372369	-0.044711504
17	0xbdce1d72	-0.1006421
18	0xbe25440c	-0.16139239
19	0x3e4707e8	0.1943661
20	0x3e82f5d0	0.25578165
21	0x3d8bb8f1	0.06822384
22	0xbda40cb2	-0.08010234
23	0xbdf1a5a3	-0.11799171
24	0x3d848a20	0.06471658
25	0xbe5d0748	-0.21584809
26	0xbde9eec6	-0.114224955
27	0xbe8d25ea	-0.2756799
28	0xbe069d98	-0.13146055
29	0xbe1852b0	-0.14875293
30	0xbe9d35c2	-0.30705076
31	0x3eac414b	0.33643565
32	0xbe8318f7	-0.25604984
33	0x3e75b1fe	0.2399368
34	0x3eb403de	0.351592
35	0x3caaed24	0.02086503
36	0xbe9b12f5	-0.302879
37	0xbe608cc1	-0.21928693
38	0x3e9a055e	0.3008222
39	0xbd5967af	-0.053077396
40	0x3e9343c8	0.2876265
41	0xbe23b89b	-0.1598839
42	0xbdbb3425	-0.09140805
43	0xbe1f7ca1	-0.15574886
44	0x3e0005a7	0.12502156
45	0xbeb2131e	-0.3478021
46	0x3e37e0a7	0.17956792
47	0xbeb72026	-0.35766715
48	0x3df713c0	0.12064314
49	0x3e54ef2a	0.20794359
50	0xbeb4cb7b	-0.35311493
51	0x3e56e51d	0.20985837
52	0x3e5515e3	0.2080913
53	0xbe575837	-0.21029745
54	0x3e15b858	0.14621103
55	0xbd4dea75	-0.050272424
56	0x3e31fc79	0.17381467
57	0x3e93355f	0.28751656
58	0xbe0ac7e5	-0.13552816
59	0xbdd728e2	-0.10505845
60	0xbdc1e057	-0.094666176
61	0xbe97739b	-0.29580387
62	0xbe3f55c7	-0.18685065
63	0xbd741dba	-0.059598662
64	0xbe2c1f3a	-0.16808787
65	0xbe4eb3d5	-0.20185788
66	0xb9c6ba53	-0.00037904325
67	0xbd0c33ce	-0.034229092
68	0x3e90da2b	0.2829145
69	0xbdaacc18	-0.08339709
70	0x3ebdef16	0.3709647
71	0xbe6766cb	-0.22597806
72	0x3cf00f72	0.02930424
73	0xbd9f9842	-0.07792713
74	0xbe4c98e2	-0.19980195
75	0xbe0b5b96	-0.13609156
76	0xbdf31872	-0.11869897
77	0xbe3f6da4	-0.18694168
78	0xbe02a387	-0.12757693
79	0x3e936ee4	0.2879554
80	0x3ecc3853	0.39886722
81	0x3debb9eb	0.115100704
82	0x3df1003d	0.117676236
83	0x3e0fb304	0.14033133
84	0xbaa3070d	-0.0012438014
85	0xbda6f056	-0.08151309
86	0xbe036d59	-0.12834682
87	0x3dbd44fb	0.092416726
88	0xbe821c19	-0.25412062
89	0xbda79501	-0.08182717
90	0xbe49b715	-0.19698747
91	0x3da22630	0.0791744
92	0xbeae4c48	-0.34042573
93	0xbdd8ff13	-0.105955265
94	0xbc8c6487	-0.017137779
95	0xbe73e838	-0.23819053
96	0xbca7fef0	-0.020507306
97	0x3ecf6e9b	0.40514073
98	0xbe3ac397	-0.18238674
99	0x3e7812da	0.24225941
100	0x3e2ded47	0.16985045
101	0x3e79e398	0.24403226
102	0xbe917c67	-0.28415224
103	0xbe2083d5	-0.1567529
104	0x3e91aabf	0.2845058
105	0xbeb6698e	-0.35627407
106	0xbd6326c2	-0.055456884
107	0xbdf42840	-0.119217396
108	0xbd7dffdc	-0.062011585
109	0xbe8ec57f	-0.27885053
110	0xbbe2d372	-0.006922179
111	0x3e969d06	0.29416674
112	0xbd56fa1f	-0.052484628
113	0xbe23c627	-0.15993558
114	0x3e3f7abc	0.18699163
115	0x3d66c28e	0.056337886
116	0x3e4a6e1a	0.19768563
117	0xbe0bd1c1	-0.13654234
118	0x3e7f291d	0.24918027
119	0xbe51e658	-0.20498025
120	0x3e82b2c2	0.25527006
121	0xbe8511d1	-0.25990155
122	0xbda1c710	-0.07899296
123	0xbc96ad44	-0.018393166
124	0xbe93c700	-0.28862762
125	0x3e932888	0.2874186
126	0x3ce4622c	0.027878843
127	0x3db8a0e2	0.09015061
128	0xbead2e58	-0.3382442
129	0x3e060982	0.13089564
130	0xbda25ae2	-0.07927491
131	0xbeab31d2	-0.33436447
132	0x3dfa33b1	0.122168906
133	0x3e10f020	0.141541
134	0x3e09b61d	0.13448377
135	0x3ddc27bb	0.107497655
136	0xbd0de2c8	-0.034640104
137	0x3e62aba5	0.2213579
138	0xbe9f9eb7	-0.31175777
139	0x3e13e084	0.14441115
140	0x3cffc0a2	0.031219784
141	0xbe9cf22a	-0.30653507
142	0xbcc0a118	-0.023514315
143	0x3e14b364	0.14521557
144	0xbe0d31f6	-0.1378859
145	0xbe85b42b	-0.2611402
146	0x3e21ed8b	0.15813272
147	0x3e7a9526	0.24470958
148	0x3eae84eb	0.34085783
149	0xbe601aae	-0.21885177
150	0xbe2816d9	-0.16414966
151	0x3dd1e645	0.102489986
152	0xbe3bbb4e	-0.1833317
153	0xbd97fc89	-0.07421214
154	0xbdc352fb	-0.09537312
155	0x3e2be95e	0.16788241
156	0x3e69859c	0.22804874
157	0x3e06a1b5	0.13147624
158	0xbdb79002	-0.08963014
159	0xbeb56c3b	-0.35434136
160	0x3d65b464	0.056080237
161	0x396d55ec	0.0002263409
162	0xbea6f831	-0.3261123
163	0xbcdc4fcc	-0.026893519
164	0x3e0f108f	0.1397116
165	0x3d152efa	0.036421753
166	0x3cad4afb	0.021153918
167	0xbe879810	-0.26483202
168	0x3daf398b	0.08555897
169	0x3e757c53	0.23973207
170	0x3e3781ca	0.17920604
171	0x3e631754	0.22176868
172	0x3e860133	0.2617279
173	0xbe0374e8	-0.12837565
174	0x3cec9984	0.028881796
175	0xbd7c8f96	-0.06166037
176	0xbe587219	-0.21137275
177	0x3da93b4f	0.08263265
178	0x3e87e794	0.26543868
179	0xbe590583	-0.21193509
180	0x3ce09da1	0.027418913
181	0x3cc80900	0.024418354
182	0x3df44bed	0.11928544
183	0x3d92b457	0.07163303
184	0xbc62102f	-0.013797804
185	0x3e91a220	0.28444004
186	0xbe3de564	-0.18544537
187	0xbe360f37	-0.17779242
188	0xbe2ce52f	-0.16884302
189	0xbe418f08	-0.18902218
190	0x3e95c3ff	0.29251096
191	0xbe6003da	-0.21876469
192	0x3e29d0db	0.16583578
193	0x3e780d49	0.24223818
194	0x3c3650d1	0.011127667
195	0xbd98a900	-0.07454109
196	0x3c844bdb	0.016149452
197	0xbeb987b4	-0.36236346
198	0x3e0e18b0	0.13876605
199	0x3e53dbbc	0.20689291
200	0x3e38380a	0.17990127
201	0xbe2b0fb7	-0.16705213
202	0x3d215148	0.039384156
203	0xbe26549a	-0.1624321
204	0x3e4b4fd7	0.19854675
205	0x3e221f47	0.15832244
206	0x3dba43d4	0.090949684
207	0xbe9804f2	-0.29691273
208	0x3e3231b8	0.17401779
209	0xbdfede34	-0.12444726
210	0x3e2fcade	0.17167231
211	0xbe9218fc	-0.28534687
212	0xbd14281d	-0.036171068
213	0x3e8cdd0e	0.275124
214	0x3cc6527d	0.024209255
215	0x3e9ee02a	0.310304
216	0x3e7dcd08	0.24785244
217	0xbe1a8f0b	-0.15093629
218	0xbde65480	-0.11246586
219	0x3e9b9087	0.30383703
220	0x3e632012	0.22180203
221	0xbd758f67	-0.059951212
222	0x3e136371	0.14393403
223	0xbe97663f	-0.29570195
224	0xbec53548	-0.38517213
225	0xbe4f4332	-0.20240477
226	0x3dc2ae7e	0.09505938
227	0xbe7988d5	-0.24368604
228	0xbdb3d4af	-0.087808006
229	0x3c58e6ec	0.01323865
230	0x3e5be3d6	0.21473631
231	0xbb2e8b4f	-0.0026633327
232	0x3d5bb0a8	0.05363527
233	0xbb596a90	-0.0033175088
234	0x3e8b2177	0.2717397
235	0xbe1377b2	-0.14401129
236	0xbe104790	-0.14089799
237	0x3e335559	0.17513026
238	0xbda74233	-0.081669234
239	0x3e0e29ec	0.1388318
240	0xbe855d24	-0.26047623
241	0x3e88e4e9	0.26737145
242	0x3e997ea5	0.29979435
243	0x3e289c90	0.16465974
244	0xbd862e3e	-0.06551789
245	0xbc8237de	-0.01589578
246	0x3d2bb12a	0.041917004
247	0x3e702bee	0.23454258
248	0xbe9e300a	-0.30896026
249	0xbc459caf	-0.012061282
250	0xbdb66388	-0.08905703
251	0xbd53de40	-0.051725626
252	0x3e899893	0.26874217
253	0xbe20397c	-0.15646929
254	0xbe59e068	-0.2127701
255	0x3de6eb3f	0.112753384

conv1.bias f4 [64]
0	0xbe9d5286	-0.30727023
1	0x3e9fe671	0.312305
2	0x3e0a2238	0.13489616
3	0xbdfc7c37	-0.123283796
4	0xbb6ef172	-0.003645983
5	0x3d5c0373	0.053714227
6	0x3e52b0f7	0.20575319
7	0xbd33bc4b	-0.043880742
8	0xbe8e6697	-0.27812645
9	0xbe6fcd31	-0.23418118
10	0xbbe1a89e	-0.006886556
11	0xbe3df1db	-0.18549292
12	0xbea2e17d	-0.3181266
13	0xbd00a6fb	-0.031409245
14	0x3d9505ae	0.07276474
15	0xbdfa30b4	-0.12216321
16	0x3e95f28e	0.29286617
17	0xbe78e975	-0.24307807
18	0xbe8516a1	-0.25993827
19	0xbe893444	-0.26797688
20	0x3dde95ed	0.1086844
21	0x3e0131d3	0.12616663
22	0xbe82ec49	-0.25570896
23	0x3d2a8bc3	0.041637193
24	0x3de293c6	0.11063342
25	0xbe1a8d83	-0.15093045
26	0xbe215878	-0.15756404
27	0xbe8c94f0	-0.2745738
28	0xbba6a0ec	-0.0050851014
29	0x3d9f1d7c	0.077692956
30	0xbe7792ba	-0.24177065
31	0x3d9846b6	0.07435362
32	0x3db37d55	0.087641396
33	0xbe98dca2	-0.2985583
34	0xbe0c4117	-0.13696705
35	0x3c8f5d87	0.017500652
36	0x3e6ab826	0.2292181
37	0x3e87bd72	0.26511723
38	0xbea3f872	-0.32025486
39	0x3e802dea	0.2503503
40	0xbe888733	-0.2666565
41	0x3e717e5e	0.23583362
42	0x3e8bd8c9	0.2731383
43	0xbe1a0d22	-0.15044072
44	0xbd467196	-0.048448168
45	0xbeb24452	-0.3481775
46	0xbe260f64	-0.16216809
47	0xbec9f83a	-0.39447194
48	0xbdc93dd7	-0.09826248
49	0x3dd6d248	0.10489327
50	0xbe230573	-0.15920047
51	0x3e2ed50d	0.1707346
52	0x3d3e49dd	0.04645716
53	0xbe51cf0d	-0.2048914
54	0xbe95a37f	-0.292263
55	0x3e9e7785	0.3095056
56	0xbc33a0c7	-0.010963625
57	0xbca0dc8f	-0.01963642
58	0x3bfc24f8	0.0076948367
59	0xbe67c23e	-0.22632691
60	0x3e055bf3	0.13023357
61	0xbd9c86e4	-0.07642916
62	0x3e7532be	0.23945138
63	0xbe6fe003	-0.23425297

conv2.weight f4 [64, 64, 3, 3]
0	0xbc5bcdaa	-0.013415733
1	0xbdd3b4c4	-0.10337213
2	0xbd5df863	-0.05419196
3	0xbdc1e248	-0.09466988
4	0xbd9c2ed1	-0.07626117
5	0xbc9da3cb	-0.019243142
6	0xbd90ba5e	-0.07066797
7	0xbd90e597	-0.07075041
8	0xbdc6ae92	-0.097012654
9	0xbc971e3e	-0.018447038
10	0xbda2ec9e	-0.079552874
11	0xbd044e56	-0.03230127
12	0xbd5eb007	-0.05436709
13	0xbcaf9b75	-0.021436432
14	0xba9f1794	-0.0012137764
15	0xbd999fd9	-0.07501192
16	0xbd0b75fa	-0.034048058
17	0xbdb2583b	-0.08708235
18	0xbd404607	-0.046941783
19	0x3c4f67db	0.012659038
20	0x3d330fe4	0.043716326
21	0xbbea8250	-0.0071566477
22	0xbd2e08e1	-0.042488936
23	0x3d01dfdc	0.03170763
24	0xbd1662c2	-0.036715277
25	0xbc58959e	-0.013219265
26	0xbd4333c1	-0.04765678
27	0xbd87d651	-0.066326745
28	0xbda1289a	-0.07869072
29	0xbdadc12d	-0.08484111
30	0xbcae5a91	-0.02128342
31	0xbdb26ad4	-0.08711782
32	0xbdadca34	-0.08485833
33	0xbcf0feca	-0.029418368
34	0xbce29ab1	-0.027661653
35	0xbd069797	-0.03285941
36	0xbd3c7730	-0.046012104
37	0xbd0a7fa3	-0.03381313
38	0x3dad23eb	0.084541164
39	0xbd86b5d6	-0.06577651
40	0xbc88f6b0	-0.016719192
41	0x3d06df24	0.032927647
42	0xbd43a22e	-0.04776209
43	0xbc3ed11e	-0.011646537
44	0x3d3010d2	0.04298479
45	0xbc5812a0	-0.013188034
46	0xbc99c66b	-0.01877137
47	0xbdbbdfec	-0.09173569
48	0xbbd5e354	-0.0065273438
49	0xbdb393d6	-0.08768432
50	0xbd362b4e	-0.044474892
51	0xbcccda39	-0.0250064
52	0xbde5be56	-0.11217944
53	0xbd120c56	-0.035656296
54	0xbc6c687d	-0.014429209
55	0xbc849928	-0.016186312
56	0xbc9d8a46	-0.019230973
57	0xbcce8df3	-0.025214171
58	0xbd2f074d	-0.042731572
59	0xbb3813e8	-0.0028088037
60	0xbc9c3ffb	-0.019073477
61	0xbd2871d5	-0.041124184
62	0xbc613427	-0.013745344
63	0xbcb690d9	-0.022285866
64	0xbdec87bc	-0.11549327
65	0xbdc65246	-0.09683661
66	0xbde58e05	-0.11208729
67	0xbd68435a	-0.056704856
68	0xbd48f383	-0.049060356
69	0xbd2a3790	-0.041556895
70	0x3c4753d6	0.012165984
71	0xbd12844d	-0.035770703
72	0xbc7fa69f	-0.01560369
73	0xbd0b670b	-0.034033816
74	0xbd39cdad	-0.045362163
75	0xbd6dd322	-0.05806268
76	0xbd2c86da	-0.042120792
77	0xbaceac15	-0.0015767837
78	0xbd1375db	-0.036001068
79	0xbb087b03	-0.0020825274
80	0xbd66a88f	-0.056313094
81	0xbd98540b	-0.07437905
82	0x3cb9343f	0.02260792
83	0x3ce111c7	0.027474297
84	0xbb6cb84e	-0.0036120596
85	0x3b3afaeb	0.0028530906
86	0xbc6a13af	-0.0142869195
87	0xbd20d134	-0.03926201
88	0xbd21a1d3	-0.03946097
89	0xbd1ace46	-0.037794374
90	0x3c88d37e	0.01670241
91	0x3bea8c9d	0.0071578757
92	0xbd1fb3fd	-0.03899001
93	0xbcd937a4	-0.02651579
94	0x3cf72f81	0.030174019
95	0xbd52128d	-0.051287223
96	0xbca8de25	-0.02061374
97	0xbce99be7	-0.028516723
98	0xbcbdc197	-0.0231636
99	0xbd070545	-0.03296401
100	0xbc93a114	-0.018021144
101	0xbc63b470	-0.013898
102	0xbd2adf07	-0.0417166
103	0xbd88b8e9	-0.06675894
104	0xbc00f7df	-0.007871597
105	0xbd1a6696	-0.03769549
106	0xbd67a636	-0.056554995
107	0xbcdee7e3	-0.027210182
108	0xbce0656a	-0.027392108
109	0xbd9a1d53	-0.075251244
110	0xbd92ef66	-0.07174568
111	0xbdb0a777	-0.086256914
112	0xbd77474d	-0.060370732
113	0xbdb9ee01	-0.09078599
114	0xbcead0ce	-0.028664019
115	0xbd12afbf	-0.035812136
116	0xbc9c72d5	-0.019097725
117	0xbdae215c	-0.085024565
118	0xbd2bdaf9	-0.041956875
119	0x3cba472c	0.022739016
120	0xbd09c6da	-0.033636905
121	0x3b4aeadc	0.003096274
122	0x3c732b82	0.014841916
123	0xbd291a97	-0.041285124
124	0xbc7caa4a	-0.015421459
125	0xbdc7da37	-0.09758418
126	0xbdb09741	-0.086225994
127	0xbdaf1de9	-0.08550627
128	0xbcc90acf	-0.024541287
129	0xbd930518	-0.07178706
130	0xbd3a1ae7	-0.045435812
131	0xbc2156a5	-0.009847318
132	0xbd893c1c	-0.06700918
133	0xbcf209df	-0.029545723
134	0xbac5e3f8	-0.0015097847
135	0xbd76919e	-0.060197465
136	0xbd42db1f	-0.04757225
137	0x3d215af0	0.039393365
138	0xbc8504bc	-0.01623761
139	0xbd835226	-0.06412153
140	0x3d27d600	0.04097557
141	0xbd0d760a	-0.0345364
142	0xbdbf6e2a	-0.09347184
143	0xbb918caa	-0.0044418173
144	0xbd13ea9a	-0.036112405
145	0xbd24da15	-0.04024704
146	0xbce02a55	-0.027363935
147	0xbb1024e7	-0.0021994652
148	0xbd82addc	-0.06380817
149	0xbca9247e	-0.020647284
150	0xbdb84b41	-0.089987285
151	0xbd804f06	-0.062650725
152	0x39610c81	0.0002146233
153	0xbd858f05	-0.065214194
154	0xbd566e27	-0.052351143
155	0x3d1728f5	0.036904294
156	0xbc1bca23	-0.009508642
157	0xbd3d60f3	-0.046235036
158	0xba267fb7	-0.00063514285
159	0xbc05f041	-0.008174957
160	0xbd093b1d	-0.03350364
161	0xbbf568dd	-0.0074893073
162	0xbc814979	-0.015782105
163	0xbd7784fb	-0.060429554
164	0xbc8dc2d7	-0.017304821
165	0xbccf82aa	-0.02533086
166	0xbcdadb4d	-0.026715899
167	0xbd41f419	-0.04735193
168	0xbd0bb8b4	-0.034111694
169	0xbd286621	-0.041113023
170	0xbd0f715e	-0.035020225
171	0xbd89f3ef	-0.0673598
172	0xbc75624b	-0.014977048
173	0xbd42427a	-0.04742668
174	0xbd63cfa5	-0.055617947
175	0xbd0edc73	-0.034878206
176	0xbc2ac748	-0.010423489
177	0xbcfd8eb9	-0.030951845
178	0xbc9beae8	-0.01903291
179	0xbcbf2b9b	-0.023336222
180	0xbd2775b4	-0.040883735
181	0xbd1dac31	-0.038494293
182	0x3cbe9f69	0.023269372
183	0xbd3dda45	-0.046350736
184	0xbd90bc9c	-0.070672244
185	0x3ce38e09	0.027777689
186	0xbd50e1a7	-0.05099645
187	0xbda5c509	-0.08094222
188	0x3cb8af6c	0.022544585
189	0xbd6055ce	-0.05476933
190	0xbd893f05	-0.06701473
191	0x3d0f2486	0.03494694
192	0xbd155254	-0.036455467
193	0xbc6ac1ff	-0.014328479
194	0xbd14a67a	-0.036291577
195	0xbc7f8308	-0.015595205
196	0xbcd90d81	-0.026495697
197	0xbd9dde0a	-0.07708366
198	0xbd018aa2	-0.03162635
199	0xbc5fe0ea	-0.013664464
200	0x3d10a8cb	0.035317224
201	0xbd129bd9	-0.03579316
202	0xbc324c3e	-0.010882435
203	0xbcbdabec	-0.023153268
204	0xbd18a917	-0.03727063
205	0xbdac5e58	-0.08416432
206	0xbd6692f2	-0.05629248
207	0xbd2fe635	-0.042944152
208	0xbd40b346	-0.04704597
209	0xbd244c8a	-0.040112056
210	0xbda64819	-0.0811922
211	0xbdb483ab	-0.08814176
212	0xbd943b8f	-0.072379224
213	0xbd904b12	-0.070455685
214	0xbbca65ec	-0.006176701
215	0xbd9057e2	-0.07048012
216	0xbcf0cbfe	-0.029394146
217	0xbbe64ee8	-0.0070284493
218	0xbd5a0049	-0.05322293
219	0xbd819a07	-0.063282065
220	0xbc83ec46	-0.016103875
221	0xbd7bf568	-0.061513335
222	0xbcec43ab	-0.02884086
223	0x3ba8a479	0.00514656
224	0xbd82bf92	-0.063841954
225	0xbcab97e3	-0.020946449
226	0xbdae8833	-0.08522072
227	0xbdb67a3b	-0.08910032
228	0xbd822c25	-0.06356076
229	0xbd55b32d	-0.05217283
230	0xbd58e167	-0.052949335
231	0xbd950925	-0.07277135
232	0xbc1fc4e9	-0.009751537
233	0xbc9565fe	-0.01823711
234	0xbd1ef9cf	-0.038812455
235	0xbc1ef599	-0.00970211
236	0x3c599833	0.013280916
237	0xbdab1971	-0.08354462
238	0xbbf51796	-0.0074796183
239	0xbd5371cf	-0.05162221
240	0xbcbc63c4	-0.02299679
241	0xbd997f7d	-0.074950196
242	0xbd55a592	-0.052159853
243	0xbcc4ca7d	-0.024022335
244	0xbd63630c	-0.05551438
245	0x3bfb8172	0.007675343
246	0xbd198dd7	-0.037488785
247	0xbc9c407e	-0.019073721
248	0xbd856369	-0.065131016
249	0xbc6364b5	-0.013878991
250	0xbd835ccb	-0.06414183
251	0xbd8f559d	-0.06998751
252	0xbc836d60	-0.016043365
253	0xbcdcff8c	-0.026977323
254	0x3c1f9493	0.009740013
255	0x3cc82faa	0.02443679

conv2.bias f4 [64]
0	0x3b2a9f23	0.0026034794
1	0xbcd4f64a	-0.025996346
2	0xbc22baf6	-0.00993227
3	0x3d7b4f1e	0.06135475
4	0xbdbc398d	-0.091906644
5	0x3cb3ca77	0.021947129
6	0xbd0c3a2a	-0.034235157
7	0xbce45fb9	-0.027877675
8	0x3d9bafb2	0.076018706
9	0x3c714903	0.01472688
10	0x3d109bd2	0.03530485
11	0x3d25ec8f	0.040508803
12	0x3c8c5779	0.017131554
13	0xbd0c1bf8	-0.03420636
14	0xbd312af4	-0.043253854
15	0xbc6f44f5	-0.014603843
16	0x3c922932	0.01784191
17	0xbd102027	-0.035186913
18	0xbd1360de	-0.03598105
19	0xbd185e9d	-0.037199605
20	0x3d417bed	0.047237325
21	0xbccbb409	-0.02486612
22	0xbd526b7e	-0.051372044
23	0xbd311f45	-0.04324271
24	0xbc8ed4fd	-0.017435545
25	0xbc8a01a8	-0.016846493
26	0x3d849bd9	0.06475038
27	0xbd958a70	-0.073017955
28	0xbdac9e0b	-0.08428582
29	0x3c7a09bd	0.015261111
30	0xbd372c55	-0.044720013
31	0xbc344991	-0.011003868
32	0x3d402355	0.046908695
33	0xbcb5d2ac	-0.022195183
34	0xbc8d2ad9	-0.017232345
35	0xbbb9c29d	-0.0056689517
36	0xbca6d469	-0.020364957
37	0x3c6e25ac	0.014535349
38	0xbd492aea	-0.04911319
39	0x3c825c6b	0.015913209
40	0x3d849b98	0.0647499
41	0xbbea16ba	-0.0071438225
42	0xbc91ed76	-0.017813426
43	0xbd54d59c	-0.051961526
44	0x3c2f1ae2	0.010687562
45	0xbafa48b0	-0.0019095149
46	0x3d09386a	0.033501066
47	0xbc0c4ff6	-0.008563986
48	0x3d4759ce	0.04866963
49	0xbb87a568	-0.004139591
50	0xbd5d9c3d	-0.05410408
51	0xbd1833f8	-0.037158936
52	0xbce3aa46	-0.027791154
53	0x3c9a8aaf	0.018864958
54	0xbd8aa1a5	-0.067691125
55	0xbb133458	-0.002246162
56	0xbc1ccb62	-0.009569975
57	0xbd567296	-0.05235537
58	0xbd9f1433	-0.077675246
59	0x3b2f30c7	0.0026731954
60	0x3c939504	0.018015392
61	0x3d0ca491	0.03433663
62	0xbd0b9c21	-0.034084443
63	0xbd8b4dee	-0.06801973

fc1.weight f4 [80, 1600]
0	0xbbbd7b3f	-0.0057825143
1	0x3cf40d3e	0.02979147
2	0x3b9c35c6	0.0047671525
3	0xbc936b69	-0.017995553
4	0xbc5914d6	-0.013249597
5	0x3c9ba0d5	0.01899759
6	0xbbc46ca7	-0.0059943977
7	0x3a70a45d	0.00091797655
8	0xbb48140d	-0.003052953
9	0xbce2cda9	-0.027685957
10	0x3c9f5b09	0.019452589
11	0x3c97a9de	0.018513616
12	0xbc3f9626	-0.011693513
13	0xba53f30c	-0.0008085228
14	0xbca3abcd	-0.019979382
15	0xbcbc27d6	-0.022968214
16	0x3c6fa9f3	0.014627921
17	0xbd5c7329	-0.053820763
18	0xbd474738	-0.048651904
19	0x3cc92913	0.024555719
20	0xbd0b30da	-0.033982135
21	0xbbcb3060	-0.006200835
22	0xbc0471c3	-0.0080837635
23	0xbc42e410	-0.011895195
24	0xbd03e763	-0.03220309
25	0x3c9e8a29	0.01935299
26	0x3ac763e3	0.0015212264
27	0x3c8458ef	0.016155688
28	0xbc55b33f	-0.013043224
29	0xbca6913b	-0.020332923
30	0x3d167dfb	0.036741238
31	0x3d11d5fb	0.03560446
32	0xbc1ebd7b	-0.00968873
33	0x3b937263	0.00449972
34	0x3db2a0f7	0.08722108
35	0xbcc689b2	-0.02423558
36	0x3a95fd60	0.001144331
37	0x3bc60fa3	0.0060443445
38	0x3cfa9bc7	0.030591859
39	0x3dea563a	0.11442228
40	0x3c435a04	0.011923317
41	0xbcf9a888	-0.03047587
42	0xbb760b4d	-0.0037543357
43	0x3d3faf4b	0.04679803
44	0x3d8fd7d0	0.07023585
45	0x3d833749	0.06407029
46	0x3d3a146e	0.04542964
47	0x3cecff23	0.028930252
48	0x3c8d4b5b	0.017247846
49	0xbd42fce0	-0.04760444
50	0xbc68367f	-0.014173149
51	0x3d004ce9	0.031323347
52	0xb96c292e	-0.00022522054
53	0x3c719399	0.014744663
54	0x3bd0ab8b	0.0063681058
55	0x3a232708	0.00062237727
56	0x3cdfdc4d	0.027326727
57	0xbc3f6c14	-0.011683483
58	0xbc880c78	-0.016607508
59	0x3c41210c	0.011787664
60	0x3a902fd5	0.0011000583
61	0xbb98ab62	-0.0046591023
62	0xbbfb8181	-0.00767535
63	0x3b9f3c03	0.004859449
64	0xbb99ab7c	-0.004689632
65	0x3cc8b87c	0.024502032
66	0x3cb48a80	0.022038698
67	0x3bff7bb4	0.007796729
68	0x3a915e4d	0.0011090726
69	0xbca16436	-0.019701105
70	0x3ac2062e	0.0014802867
71	0x3bd560ed	0.0065117986
72	0xbc0dfdf9	-0.008666509
73	0xbcb9fc7e	-0.022703405
74	0xbc9b002a	-0.018920977
75	0x3d63f121	0.05564988
76	0x3ce116db	0.027476719
77	0xbd43f5e0	-0.047841907
78	0x3c94671b	0.01811557
79	0x3ccc4f96	0.024940293
80	0xbd386580	-0.045018673
81	0x3da52295	0.080632366
82	0xbc17f048	-0.009273596
83	0x3bcda973	0.0062763034
84	0xbcdd2d03	-0.026999002
85	0xbabb867d	-0.0014307048
86	0x3d805e0e	0.062679395
87	0xb9cf0c3f	-0.0003949124
88	0x3c536880	0.012903333
89	0x3c713685	0.014722471
90	0x3d542b18	0.05179891
91	0x3d770c76	0.060314618
92	0xbda87b86	-0.08226685
93	0xb95fdd9d	-0.00021349495
94	0x3d337138	0.043809146
95	0x3d915519	0.07096309
96	0x3d446fb2	0.047958083
97	0xbd93c475	-0.072152056
98	0xbc60365e	-0.013684837
99	0x3c943bc1	0.0180949
100	0x3ccdb004	0.025108345
101	0xbc1281a7	-0.008942044
102	0x3c965b19	0.018353986
103	0xbc1beffe	-0.009517668
104	0x3c0cc569	0.008591988
105	0x3d1cbab0	0.038263977
106	0xbbf5a5ec	-0.007496586
107	0xbd46f7c6	-0.04857614
108	0xbd5d1df8	-0.05398366
109	0x3dc875a3	0.097880624
110	0xbc550f70	-0.013004169
111	0xbd9620e1	-0.0733049
112	0xbcc864f6	-0.024462204
113	0x3d08b6bd	0.033377398
114	0x3d30a529	0.04312626
115	0xbcd695e1	-0.026194515
116	0xbca38a36	-0.019963365
117	0x3c1bdb02	0.009512665
118	0x3cc018e4	0.023449369
119	0xbbc129a2	-0.0058948556
120	0xbd95b345	-0.073095836
121	0xbc90ccad	-0.017675722
122	0x3d2862d1	0.041109864
123	0xbd1c944a	-0.038227357
124	0xbd937148	-0.07199341
125	0x3c468b2e	0.012118144
126	0x3c888cb2	0.016668651
127	0x3b835445	0.0040078484
128	0x3c120df1	0.008914457
129	0xbd2da9b8	-0.042398185
130	0xba6e481e	-0.0009089726
131	0xbc6bdc19	-0.014395737
132	0x3c81dc23	0.01585204
133	0x3d04e49e	0.03244459
134	0xba6af0a1	-0.0008962248
135	0x3cdf5d7c	0.027266257
136	0x3c3697fe	0.011144636
137	0x3b88420e	0.004158265
138	0xbb93938a	-0.004503672
139	0xbc8b55f8	-0.017008767
140	0x3cf8829c	0.030335717
141	0x3cca6049	0.024704115
142	0xbc6a1b50	-0.014288738
143	0x3d2000c1	0.03906322
144	0xbce3eb55	-0.027822176
145	0x3cb58df5	0.022162417
146	0x3c989f38	0.018630609
147	0x3c2c6656	0.010522446
148	0xbba2d061	-0.0049686884
149	0xbb666399	-0.003515458
150	0x3ae82774	0.0017711953
151	0x3b3a72a6	0.0028449683
152	0x3c7a1e8b	0.015266071
153	0x3cb19d62	0.021681491
154	0x3c0973e6	0.008389449
155	0x3cad8079	0.021179425
156	0xba8adc7e	-0.0010594276
157	0xbc2458b0	-0.01003091
158	0x3c38b2b6	0.011273077
159	0xbcad4353	-0.021150267
160	0x3b7c9b39	0.0038544668
161	0x3ca409c1	0.020024182
162	0x3d01c74a	0.031684197
163	0xbbf76559	-0.0075499234
164	0x3c76310b	0.015026341
165	0x3c9f47f2	0.019443486
166	0x3cc601e9	0.024170833
167	0xbc2cc405	-0.010544782
168	0xbca426e3	-0.020038074
169	0xbcd5d5e3	-0.026102966
170	0x3c9b626c	0.01896783
171	0xbcc528c7	-0.024067296
172	0xbbe67ec5	-0.007034155
173	0x3c0f8a58	0.008761011
174	0x3cc83d55	0.024443308
175	0xbcd29701	-0.02570677
176	0x3c21520f	0.009846224
177	0x3c126aee	0.008936627
178	0x3c8b369c	0.016993813
179	0x3c153ed0	0.009109214
180	0x3ccf0b14	0.025273837
181	0xbc7c69f8	-0.015406124
182	0x3cafd044	0.021461613
183	0x3bee51e9	0.007272948
184	0x3ce42490	0.027849466
185	0xbc2e9140	-0.0106547475
186	0x3bb5a304	0.0055431146
187	0xbc81dab8	-0.015851364
188	0xbc290fcd	-0.010318709
189	0x3c5d07fc	0.013490673
190	0x3ce0fc32	0.027464006
191	0xbcf9f4ef	-0.030512301
192	0xbc0a5dba	-0.008445198
193	0xbcd5d84e	-0.026104119
194	0xbc39189e	-0.011297373
195	0x3bedf74a	0.007262145
196	0x3ab84dea	0.0014061306
197	0x3c8d96c3	0.017283803
198	0x3c924b88	0.017858282
199	0x3c5e355f	0.013562529
200	0x3d92fe43	0.07177403
201	0x3d7d09b3	0.061776828
202	0x3c20b6f6	0.009809246
203	0xbcee142e	-0.029062357
204	0xbcb8a1cf	-0.022538094
205	0x3c39f458	0.01134976
206	0x3d5e6133	0.054291915
207	0x3d7e3ccf	0.06206971
208	0xbb50456a	-0.0031779655
209	0x3d81e6be	0.06342839
210	0x3d4dd39e	0.050250642
211	0x3d3e1bea	0.04641334
212	0x3d6459ae	0.055749588
213	0x3cfe0659	0.031008886
214	0x3e0461c4	0.1292792
215	0x3dec1b34	0.11528626
216	0x3d77c0bb	0.060486536
217	0xbceab66c	-0.028651439
218	0x3cd711f4	0.026253678
219	0x3d284753	0.041083645
220	0x3dab1ecf	0.08355486
221	0x3df7120e	0.120639905
222	0x3d2a3a99	0.04155979
223	0xbcdeb794	-0.027187146
224	0xbc5b61de	-0.013390033
225	0x3caf0d59	0.02136867
226	0x3afb6291	0.0019179155
227	0x3c33ed63	0.01098189
228	0x3c8cae0f	0.017172841
229	0xbca85cb8	-0.020552024
230	0x3aac2285	0.0013132846
231	0x3ca3ce90	0.019995958
232	0x3b84c129	0.004051347
233	0x3b8021f6	0.0039102985
234	0xbcab28fb	-0.020893564
235	0xbb775479	-0.0037739559
236	0xbb8e0abd	-0.004334776
237	0xbb9553ec	-0.0045571234
238	0xbcbadbeb	-0.022809943
239	0x3c4f7774	0.012662757
240	0x3cd385f2	0.025820706
241	0x3c92788e	0.01787975
242	0xbbf630ab	-0.007513126
243	0x3c1ec0c9	0.009689518
244	0xbb0a39b4	-0.0021091523
245	0xbb866640	-0.0041015446
246	0x3c9d3ed2	0.019194994
247	0x3c26e26c	0.010185819
248	0x3bb54c55	0.005532781
249	0x3ab3373e	0.001367308
250	0x3b9e2784	0.004826488
251	0x3ceba8f8	0.028767094
252	0x3c2f3cc2	0.010695638
253	0x3d121d3a	0.035672404
254	0x3dc131b5	0.09433309
255	0x3c93745f	0.017999826

fc1.bias f4 [80]
0	0xbcabee61	-0.020987691
1	0x3b2f788b	0.002677473
2	0xbc0fe160	-0.008781761
3	0xbc83ccac	-0.016088806
4	0xbd4f55a6	-0.05061879
5	0xbbf1fa5d	-0.007384582
6	0xbd43c90b	-0.04779915
7	0xbd0a5709	-0.03377441
8	0xbc2e3800	-0.010633469
9	0xbca05277	-0.019570572
10	0xbcb8bb57	-0.022550268
11	0xbd4b769d	-0.049673665
12	0xbc06b85e	-0.0082226675
13	0xbb04429d	-0.0020181306
14	0x3d530d47	0.051526334
15	0xbc0ca6b0	-0.008584663
16	0xba05bb39	-0.0005101446
17	0x3d2c208a	0.04202322
18	0xbb64be87	-0.0034903602
19	0x3d4979ce	0.049188428
20	0xbd9f43c2	-0.07776596
21	0x3d89c41e	0.067268595
22	0x3a4046b2	0.0007334753
23	0xbc84093f	-0.01611769
24	0x3bd4789a	0.0064841034
25	0xbd10d510	-0.035359442
26	0x3a667f62	0.0008792785
27	0xbd042248	-0.032259256
28	0xbd1848ae	-0.037178688
29	0xbd89936a	-0.0671757
30	0xbcbfebf3	-0.023427939
31	0x3cebafad	0.028770292
32	0x3c8e6784	0.017383344
33	0xbd8b2606	-0.06794362
34	0xbc7ebb7e	-0.015547631
35	0x3b263ebc	0.0025366982
36	0x3d49a6d2	0.049231358
37	0xbcd31ff3	-0.02577207
38	0xbd5a9e2e	-0.05337351
39	0x3d480700	0.0488348
40	0xbc9534c9	-0.018213646
41	0xbd91c6bf	-0.07117986
42	0x3d08bb90	0.033382
43	0xbc494396	-0.01228418
44	0xbc124d14	-0.00892951
45	0xbc6c7dc1	-0.014434279
46	0x3c846b95	0.01616458
47	0x3d9d0db8	0.07668632
48	0x3bfe28f5	0.0077563473
49	0xbc03e6b5	-0.00805061
50	0xbd2af9f3	-0.041742276
51	0xbd601776	-0.054709874
52	0xbd350c4e	-0.044201188
53	0x3cfb9d7c	0.030714743
54	0x3cd19bee	0.025587048
55	0xbd411350	-0.04713756
56	0x3c70323b	0.014660413
57	0x3cba5e4c	0.022750042
58	0xbd5b188d	-0.05349021
59	0xbcd0d492	-0.025491986
60	0xbc8eb2b9	-0.017419206
61	0xbd56d798	-0.0524517
62	0x3c247dde	0.010039775
63	0x3c1a2162	0.009407373
64	0xbd495800	-0.04915619
65	0x3d0b89ff	0.03406715
66	0xbcb531f8	-0.022118554
67	0x3d36adea	0.04459945
68	0xbc18179d	-0.009282974
69	0xbd2caec1	-0.042158846
70	0xbcbcd207	-0.023049368
71	0x3c8d8895	0.017277041
72	0xbd1337b5	-0.0359418
73	0x3d7f0b98	0.062266916
74	0x3c142dff	0.009044169
75	0x3d065749	0.032798085
76	0x3cb97bbd	0.02264201
77	0x3d7d3f69	0.06182805
78	0xbdba47d5	-0.09095732
79	0xbd0eb9ac	-0.03484504

fc2.weight f4 [10, 80]
0	0xbc172a08	-0.00922633
1	0xbd205eba	-0.03915284
2	0x3df5e32b	0.120062195
3	0x3dc039ff	0.09386062
4	0x3d5587db	0.052131515
5	0x3d486b78	0.048930615
6	0xbaf92bb3	-0.0019010216
7	0x3dec9303	0.11551478
8	0x3e0cda80	0.13755226
9	0x3e009c0d	0.12559529
10	0xbc868a76	-0.016423445
11	0xbde04019	-0.10949726
12	0xbdedfaef	-0.116201274
13	0x3dbc0c5c	0.09182045
14	0xbd4308bf	-0.047615763
15	0xbd2bc0d0	-0.041931927
16	0x3d8850dd	0.066560484
17	0x3d0d8b9f	0.03455698
18	0x3c1e297c	0.009653445
19	0x3a8202bc	0.0009919028
20	0x3da135b6	0.07871573
21	0xbd775b26	-0.06038966
22	0xbdff4709	-0.12464721
23	0x3e08b993	0.13352041
24	0x3dcda6a4	0.1004155
25	0x39d564e6	0.000407017
26	0x3e21ecc2	0.15812972
27	0xbe07240f	-0.13197349
28	0x3ddecc5a	0.10878821
29	0xbd5e0a3c	-0.05420898
30	0x3d95cce2	0.07314469
31	0xbdbc05a0	-0.091807604
32	0xbb78098f	-0.0037847494
33	0xbcd16d7f	-0.025564907
34	0xbd010871	-0.03150219
35	0xbe06d39d	-0.13166662
36	0xbdbb2571	-0.09138001
37	0x3d1404b9	0.036137316
38	0x3db9c52d	0.090708114
39	0xbdb48b02	-0.08815576
40	0xbe0e68c7	-0.13907157
41	0x3c84459c	0.016146474
42	0x3d0700ef	0.032959875
43	0xbd9f75e8	-0.07786161
44	0x3d97e698	0.07417029
45	0x3c17f183	0.0092738895
46	0xbdf581ec	-0.11987671
47	0xbdc3e169	-0.09564478
48	0x3dc0c32f	0.09412228
49	0x3d98c23a	0.07458921
50	0xbd51fb19	-0.051264856
51	0x3d39bc83	0.045345794
52	0x3dcdf686	0.10056786
53	0x3dced8cc	0.100999445
54	0xbd91696e	-0.07100187
55	0x3e0a62f3	0.13514309
56	0x3dfed015	0.12442032
57	0x3dffbaa3	0.1248677
58	0xbd99f7d6	-0.07517974
59	0xbde145b4	-0.10999623
60	0x3da29829	0.079391785
61	0x3d1960a6	0.037445687
62	0xbd3dbe5e	-0.046324126
63	0xbd2740fd	-0.040833462
64	0x3daa9ef7	0.083311014
65	0xbdd9146e	-0.105996
66	0x3d55d7fd	0.052207936
67	0x3dc2d597	0.09513395
68	0xbbaf8431	-0.0053563346
69	0xbb352afb	-0.0027644027
70	0xbdb8d7b1	-0.09025515
71	0x3dd174c2	0.10227348
72	0xbe0656ae	-0.13119003
73	0x3d28a95c	0.04117714
74	0x3d9ef19b	0.07760926
75	0x3dbf5b03	0.09343531
76	0xbdd19c2e	-0.10234867
77	0xbdb05f56	-0.08611934
78	0x3cd0bbc3	0.025480157
79	0xbdaad125	-0.083406724
80	0xbd78ed36	-0.060773097
81	0x3de786f8	0.1130504
82	0xbdf6f49a	-0.12058373
83	0xbd857bd8	-0.06517762
84	0xbcc6ef04	-0.024283893
85	0xbd62c053	-0.055359196
86	0x3c2aa025	0.010414158
87	0x3d98fabe	0.074697
88	0xbca71fef	-0.02040097
89	0xbdcc6b26	-0.099813744
90	0xbd63187a	-0.055443265
91	0xbd85c831	-0.06532324
92	0xbd06e68e	-0.032934718
93	0xbd912001	-0.070861824
94	0x3dd6dfe6	0.10491924
95	0xbc692328	-0.014229573
96	0xbcd28c46	-0.025701653
97	0x3dc3fb3d	0.09569404
98	0x3dfd7505	0.12375835
99	0x3d7fe673	0.062475633
100	0xbe054883	-0.13015942
101	0x3d90464b	0.07044657
102	0xbd53623a	-0.051607348
103	0xbcd7c09f	-0.026336966
104	0x3d5b21c2	0.05349899
105	0xbe0119cf	-0.12607501
106	0xbdca8112	-0.098878995
107	0xbd2f346e	-0.04277461
108	0xbe05948a	-0.13044944
109	0xbdddac24	-0.10823849
110	0xbda8863e	-0.0822873
111	0x3e031121	0.12799503
112	0x3cd85f77	0.026412709
113	0xbdf1a9db	-0.117999755
114	0xbe25dbd4	-0.16197139
115	0x3d8873c7	0.06662708
116	0x3d0b90e3	0.03407372
117	0xbd9871d6	-0.074435875
118	0xbd0dc3ae	-0.034610443
119	0x3c92c582	0.017916445
120	0xbd63180a	-0.055442847
121	0xbdf33ed1	-0.11877216
122	0x3de47f9b	0.11157151
123	0x3ab73d76	0.0013980109
124	0x3dd6519e	0.10464786
125	0xbd6c5233	-0.05769558
126	0xbcbc7fa1	-0.023010077
127	0x3df4b667	0.11948853
128	0xbd8a5f02	-0.067564026
129	0xbdb1ff69	-0.08691294
130	0xbe1b005c	-0.15136856
131	0xbdfdc3a9	-0.12390835
132	0xbe13f758	-0.14449823
133	0xbd88ae8f	-0.066739194
134	0xbdf4d775	-0.11955158
135	0xbdacdeaa	-0.08440907
136	0xbd515780	-0.051108837
137	0x3dab3f07	0.08361631
138	0xbdeaf88d	-0.114731885
139	0xbdd05895	-0.10173146
140	0xbcfc733d	-0.030816669
141	0xbdc183c0	-0.094489574
142	0x3e075b21	0.13218357
143	0x3df2dac9	0.11858136
144	0xbe04066b	-0.12893073
145	0x3d86030e	0.065435514
146	0xbe02fde7	-0.12792169
147	0x3db5a20c	0.088687986
148	0x3b4688f7	0.003029404
149	0xbda5a603	-0.08088305
150	0xbd13bd30	-0.036069095
151	0x3d19c687	0.037542846
152	0xbd7e3841	-0.062065367
153	0x3dae29c2	0.085040584
154	0x3d69ca8e	0.057077937
155	0x3d0553d5	0.03255065
156	0x3d4d570f	0.050131854
157	0x3e1986ca	0.14992824
158	0xbdeab53c	-0.11460349
159	0xbda25906	-0.07927136
160	0xbd99ff7b	-0.07519432
161	0x3a66de25	0.0008806906
162	0xbdad565d	-0.08463738
163	0xbcba88c5	-0.022770295
164	0x3e14a9da	0.14517918
165	0xbd3c89e8	-0.046029955
166	0x3dc13141	0.094332226
167	0x3e063231	0.13105084
168	0x3e15f0ad	0.14642592
169	0xbcc4d031	-0.024025055
170	0x3d0333b0	0.032031715
171	0x3e07a2a0	0.1324563
172	0xbd0189f9	-0.03162572
173	0xbd42d92d	-0.047570396
174	0xbddbfa83	-0.10741141
175	0xbd017b49	-0.031611715
176	0xbdddf32d	-0.10837398
177	0xbcd26d27	-0.025686814
178	0x3deb7d64	0.11498526
179	0xbd8de06b	-0.0692757
180	0x3e0cfdec	0.13768739
181	0xbd3738cf	-0.04473191
182	0xbda3ebc8	-0.08003956
183	0xbdf4b0df	-0.11947798
184	0x3ddfeba7	0.10933619
185	0x3ccb2cd9	0.024801658
186	0xbdc8240e	-0.09772502
187	0x3c8865a4	0.016650029
188	0x3d0dbe2b	0.034605186
189	0x3e009cbc	0.1255979
190	0x3df7295e	0.12068437
191	0x3dda235c	0.106512755
192	0x3e0d3de8	0.13793147
193	0x3c082981	0.008310677
194	0xbdc8cd2a	-0.09804757
195	0x3bf28998	0.0074016564
196	0x3e0cfcf6	0.13768372
197	0x3d9dcb32	0.07704772
198	0xbc8219d5	-0.015881458
199	0x3db4bbf6	0.08824913
200	0xbd6f8170	-0.05847305
201	0xbd80dbb2	-0.062919036
202	0xbd32795b	-0.043572765
203	0xbdb9b825	-0.09068326
204	0x3d611f5c	0.054961547
205	0xbda0334b	-0.07822283
206	0x3e01c41b	0.12672465
207	0xbd9196d6	-0.07108848
208	0xbc8bd3cc	-0.017068766
209	0x3da60175	0.08105747
210	0xbddb4658	-0.107067764
211	0x3d916822	0.0709994
212	0xbdc40927	-0.09572058
213	0xbe1ed584	-0.15511137
214	0xbdf21ec8	-0.11822277
215	0xbd8bd29b	-0.06827279
216	0xbdab3c3e	-0.083611
217	0x3d8fe99d	0.0702698
218	0x3df23ab4	0.11827603
219	0x3dfcff3d	0.1235337
220	0x3d0231b8	0.031785697
221	0xbd87b071	-0.066254504
222	0xbc50cbbd	-0.0127438875
223	0x3e006763	0.12539439
224	0x3c21ec73	0.009883034
225	0xbd09d975	-0.03365465
226	0xbd97f3c1	-0.07419539
227	0xbd99cfea	-0.075103596
228	0xbcffe35f	-0.031236349
229	0x3d1ec254	0.038759544
230	0x3bb3ec10	0.0054907873
231	0xbbbca38a	-0.0057568
232	0x3deb7e88	0.11498743
233	0xbd6041ec	-0.054750368
234	0x3cbbd5ca	0.022929091
235	0x3e1a5a66	0.15073547
236	0xbc7aef37	-0.015315822
237	0x3dd73698	0.1050846
238	0x3d3a66da	0.045508243
239	0x3ddad0e1	0.10684372
240	0xbdd95d9b	-0.10613557
241	0x3db531d9	0.08847398
242	0x3d8e2eb7	0.06942504
243	0x3c1bdc76	0.009513011
244	0x3d369196	0.044572435
245	0x3d9daeb5	0.07699338
246	0x3dabb65e	0.08384393
247	0xbbe85e17	-0.0070912945
248	0x3de866f8	0.11347765
249	0xbd564cbd	-0.052319277
250	0x3ccd6db8	0.025076732
251	0xbdb33262	-0.08749844
252	0x3d9891a6	0.07449655
253	0x3dbd13ef	0.09232318
254	0xbd243a8c	-0.040094897
255	0x3dd15d7f	0.10222911

fc2.bias f4 [10]
0	0x3cceb144	0.025231011
1	0x3da20387	0.07910829
2	0x3b51d008	0.0032014865
3	0xbd7c3538	-0.06157419
4	0xbcfa7fb3	-0.03057847
5	0xbd186f25	-0.03721537
6	0xbd29d631	-0.041464034
7	0xbdc9c67e	-0.098523125
8	0x3cc5fd42	0.024168614
9	0x3d45876e	0.04822486
